classification/digits/best_model.pth (torch, 527861 bytes, 10 tensors)

conv1.weight f4 [32, 1, 3, 3]
0	0xbdc19a41	-0.0945325
1	0xbe539a58	-0.20664346
2	0xbe9aecf7	-0.30258915
3	0xbe74c597	-0.239035
4	0xbe9c3eae	-0.3051657
5	0xbed1976b	-0.40935835
6	0xbe0344e0	-0.12819242
7	0xbea56007	-0.32299826
8	0xbe312f71	-0.17303254
9	0xbd5564c7	-0.052098062
10	0x3e1ee636	0.15517506
11	0xbdd5986f	-0.10429465
12	0x3e7ef228	0.24897063
13	0x3e5dd97a	0.21664992
14	0x3e24cdd0	0.16094136
15	0xbe8927e0	-0.26788235
16	0xbe355718	-0.17709005
17	0x3ce5a7ac	0.028034054
18	0xbed2c248	-0.4116385
19	0xbe40fab8	-0.18845642
20	0x3e6ce828	0.23135436
21	0x3e9086b0	0.28227758
22	0x3e9af283	0.30263147
23	0x3e8f3f70	0.27978086
24	0xbe547734	-0.20748597
25	0x3e463e0a	0.19359604
26	0x3e90a56a	0.282512
27	0x3bd5ecf7	0.0065284926
28	0xbe418b16	-0.18900713
29	0x3e8c4cbc	0.27402294
30	0xbe0ecaea	-0.13944593
31	0x3d8b83c9	0.068122454
32	0xbcc89be0	-0.02448839
33	0xbca6492d	-0.020298565
34	0x3e74fc6c	0.23924416
35	0xbc4579b7	-0.012052945
36	0x3e8b2d0a	0.271828
37	0x3e5886f5	0.21145232
38	0x3dd3e589	0.10346515
39	0xbd6fdf85	-0.058562774
40	0x3d5a332b	0.053271454
41	0x3d30ff73	0.043212365
42	0x3d475108	0.04866126
43	0xbce915fb	-0.028452864
44	0xbedd27a0	-0.43194294
45	0xbe71e05d	-0.23620744
46	0xbea6b820	-0.3256235
47	0xbd8d3e12	-0.068966046
48	0xbe85fb16	-0.26168126
49	0xbe5d00db	-0.21582358
50	0xbe768b48	-0.24076569
51	0xbe3b9c84	-0.18321425
52	0xbeb975c8	-0.36222672
53	0xbd75e30a	-0.060030974
54	0xbdb1579a	-0.08659287
55	0xbea42213	-0.32057247
56	0x3daf8d25	0.08571843
57	0xbe3e00c0	-0.18554974
58	0xbea070b0	-0.31335974
59	0xbe1db6f9	-0.1540183
60	0x3ce15c88	0.027509943
61	0x3e07cc24	0.13261467
62	0xbe553bf8	-0.20823658
63	0xbd952f33	-0.07284393
64	0x3ea9f910	0.33197832
65	0xbe93b814	-0.28851378
66	0xbb0a39c9	-0.0021091572
67	0x3cfe614b	0.031052252
68	0x3e8da4f0	0.276649
69	0x3e35019d	0.17676397
70	0xbe71b3d6	-0.23603758
71	0x3e23629e	0.15955588
72	0xbe207793	-0.15670614
73	0x3e918be5	0.28427044
74	0x3d0cb923	0.034356248
75	0xbe03d75c	-0.12875122
76	0x3b63a40b	0.0034735228
77	0x3ec0decd	0.37669984
78	0xbe03cd1d	-0.12871213
79	0xbec94fab	-0.39318594
80	0xbe2a9cff	-0.16661452
81	0xbe268329	-0.16260971
82	0xbe33dfc8	-0.17565835
83	0x3d9903b8	0.074714124
84	0xbedb18a2	-0.4279223
85	0x3e18c04d	0.14917107
86	0x3d4e422e	0.050356083
87	0x3e8be96c	0.27326524
88	0x3e980e3a	0.29698354
89	0x3e013e06	0.12621316
90	0x3f024a6e	0.5089482
91	0xbbce3049	-0.006292377
92	0xbe99b27a	-0.3001898
93	0x3e300e50	0.1719296
94	0xbec85728	-0.39128995
95	0xbed0e77d	-0.40801612
96	0x3d261694	0.040548876
97	0xbeef9ec0	-0.46800804
98	0x3ece3422	0.4027415
99	0xbe156c2c	-0.14592046
100	0xbeb1755c	-0.3465985
101	0xbf0ccaf4	-0.5499718
102	0xbed2e9f0	-0.41194105
103	0xbec91051	-0.3927026
104	0x3d4350de	0.047684543
105	0xbef2d269	-0.47426155
106	0x3e536ef3	0.20647793
107	0x3f1d4a96	0.61441934
108	0xbe28da30	-0.16489482
109	0x3e9fc3e4	0.3120414
110	0x3eadba67	0.33931276
111	0xbe7c98fa	-0.24667731
112	0xbe67b31f	-0.22626923
113	0x3e2171d5	0.1576608
114	0xbd6b3753	-0.05742581
115	0x3e90501b	0.28186116
116	0x3ea683a4	0.3252231
117	0xbce74b74	-0.028234221
118	0x3e8b797a	0.27241117
119	0x3da88d46	0.08230071
120	0xbe6f7841	-0.23385717
121	0x3e5b3da5	0.21410234
122	0x3e9f55ea	0.31120235
123	0xbeeb2e44	-0.45933735
124	0xbeab5764	-0.3346511
125	0xbe3492f7	-0.17634188
126	0x3e8f9cfe	0.28049463
127	0xbebe3e2a	-0.37156802
128	0xbe9fc5dc	-0.31205642
129	0x3eb569d4	0.35432303
130	0x3e9fe454	0.31228888
131	0x3d2328ae	0.039833717
132	0xbe18241c	-0.14857525
133	0xbceea16a	-0.029129703
134	0x3e4340b5	0.19067653
135	0x3e71b479	0.23604001
136	0x3dcff4e5	0.10154132
137	0xbea9c90e	-0.33161205
138	0xbdb16c53	-0.08663239
139	0x3e845db7	0.2585275
140	0xbd93a9a1	-0.072100885
141	0x3e146010	0.1448977
142	0x3e9cd30b	0.30629763
143	0xbe2fb0d1	-0.17157294
144	0x3ea5a096	0.3234908
145	0x3ea1aca6	0.31577033
146	0x3e4ee165	0.20203169
147	0xbdfb3be7	-0.12267285
148	0xbe5022fe	-0.20325848
149	0xbebacef2	-0.36486012
150	0x3e1ef1c8	0.1552192
151	0xbee05d13	-0.4382101
152	0x3d8bc5a6	0.06824808
153	0x3d799ca8	0.060940415
154	0x3e46f2bd	0.19428535
155	0x3d94e858	0.072708786
156	0x3e94305e	0.2894315
157	0x3e7eef69	0.24896015
158	0xbe825603	-0.25456247
159	0x3e5cf8af	0.2157924
160	0xbe23f98d	-0.16013165
161	0xbe71dd0b	-0.23619477
162	0xbe69940d	-0.22810383
163	0xbe5d49f8	-0.21610248
164	0x3e99fbda	0.3007496
165	0x3b658407	0.0035021321
166	0x3cbc0d9a	0.022955704
167	0x3ea48070	0.3212924
168	0x3e37265e	0.1788573
169	0x3e4ac504	0.19801718
170	0xbf034877	-0.5128245
171	0x3e33e40e	0.17567465
172	0x3e10dba7	0.1414629
173	0x3e96a670	0.29423857
174	0xbe02afbc	-0.1276235
175	0x3d12cda4	0.035840645
176	0x3d30abb7	0.04313251
177	0xbdeae7e8	-0.11470014
178	0xbe824958	-0.25446582
179	0xbe92136c	-0.28530443
180	0x3eff58e4	0.49872506
181	0x3eb0b122	0.34510142
182	0xbe4186d6	-0.18899092
183	0xbe71cd94	-0.23613578
184	0xbe767282	-0.24067119
185	0xbf01670c	-0.5054786
186	0x3c2a18b5	0.010381867
187	0xbeb00924	-0.34381974
188	0xbe6bbc95	-0.23021157
189	0x3e6f8774	0.23391515
190	0x3ed68706	0.4189989
191	0x3e572ad8	0.21012437
192	0xbe8a8cd7	-0.27060577
193	0xbef28c73	-0.4737278
194	0xbeb1f560	-0.3475752
195	0x3db75008	0.089508116
196	0x3c8379a5	0.016049216
197	0x3e560573	0.20900516
198	0xbe3fb862	-0.1872268
199	0xbebcd45e	-0.36880773
200	0x3e6623c4	0.22474581
201	0xbe63d2e9	-0.22248425
202	0x3e5123e8	0.20423853
203	0x3e96fd9c	0.29490364
204	0x3d461424	0.04835905
205	0x3e14ac61	0.14518882
206	0x3da5361b	0.080669604
207	0x3dafd694	0.085858494
208	0x3cc738e8	0.024319127
209	0x3e109420	0.14119005
210	0x3db77ff0	0.08959949
211	0x3e99ce53	0.30040225
212	0xbd983b92	-0.07433237
213	0xbd860a48	-0.0654493
214	0x3e38bc85	0.18040664
215	0xbc61d914	-0.013784666
216	0xbe8e537f	-0.27798077
217	0xbe6bd25e	-0.23029467
218	0x3eb95c78	0.3620336
219	0x3e03fd73	0.12889652
220	0x3d56fc5c	0.052486762
221	0x3eb4619f	0.3523073
222	0x3e4dfc8c	0.2011587
223	0xbf02ddf8	-0.5111995
224	0xbd9f4463	-0.077767156
225	0xbead6bf2	-0.33871418
226	0x3e74e1c4	0.23914248
227	0x3e8cdf08	0.2751391
228	0x3e4a45f6	0.1975325
229	0x3e4f8a34	0.20267564
230	0x3b93441b	0.004494203
231	0x3e07d41a	0.13264504
232	0xbe93510e	-0.28772777
233	0x3e9eb509	0.30997494
234	0xbe7350eb	-0.23761337
235	0xbe552abf	-0.20817088
236	0x3e9e87ca	0.30962974
237	0x3dd01611	0.10160459
238	0x3df6352f	0.12021863
239	0x3d93e812	0.07221998
240	0xbec578be	-0.3856868
241	0x3e282807	0.16421519
242	0x3e173af6	0.14768586
243	0xbe2d0072	-0.16894701
244	0xbf19bd95	-0.60054904
245	0xbd633d52	-0.0554784
246	0x3e886514	0.26639616
247	0xbdb343a3	-0.08753135
248	0xbe856d01	-0.26059726
249	0x3f020777	0.5079264
250	0xbc2d4723	-0.010576042
251	0x3ed3fcaf	0.4140372
252	0x3cdb62e2	0.02678055
253	0x3e4ee924	0.20206124
254	0x3df1546e	0.11783682
255	0x3ddb1376	0.10697071

conv1.bias f4 [32]
0	0xbbcbd125	-0.0062200003
1	0x3ddab3d4	0.10678831
2	0xbe8ec28a	-0.27882797
3	0xbd1c47c9	-0.038154397
4	0xbd8d2828	-0.06892425
5	0x3e17da93	0.14829473
6	0x3d47c374	0.048770383
7	0x3e123fa2	0.14282086
8	0x3de5b27e	0.11215685
9	0x3cf55921	0.029949727
10	0xbe4b642a	-0.19862428
11	0xbd122601	-0.035680775
12	0x3d56adf4	0.05241199
13	0x3e401086	0.18756303
14	0x3dbedac1	0.09319068
15	0xbe97b94d	-0.2963356
16	0x3e463040	0.19354343
17	0xbe724a7d	-0.23661228
18	0xbe63c035	-0.2224129
19	0x3dfad3f2	0.122474566
20	0x3e4625b4	0.1935032
21	0xbe64e6d9	-0.22353686
22	0xbd8767ed	-0.06611619
23	0x3dc30a20	0.095234156
24	0xbe5be737	-0.2147492
25	0xbe1c67d1	-0.15273978
26	0x3d38e9c1	0.0451448
27	0xbbf735bf	-0.007544249
28	0x3dabd30a	0.08389862
29	0xbc65f774	-0.014036048
30	0xbd67fe5d	-0.056639064
31	0xbeb8d187	-0.36097357

conv2.weight f4 [64, 32, 3, 3]
0	0x3d613c08	0.05498889
1	0xbe1c6d37	-0.15276037
2	0x3dc85366	0.09781532
3	0x3d77b128	0.060471684
4	0xbe709900	-0.23495865
5	0xbdf25cfb	-0.11834141
6	0x3d67479a	0.05646477
7	0xbcc4339a	-0.023950387
8	0xbdd6353b	-0.10459372
9	0xbcbfadb9	-0.023398267
10	0x3d3a0abb	0.04542039
11	0xbd075e71	-0.03304905
12	0xbd9bd3bf	-0.07608747
13	0x3da33655	0.079693474
14	0x3d2d652e	0.04233282
15	0xbd98639c	-0.07440874
16	0xbb8056a8	-0.00391658
17	0x3d9928a4	0.07478455
18	0xbd547896	-0.051872812
19	0x3db95ec6	0.0905128
20	0xbe31e612	-0.17372921
21	0xbdacbc35	-0.08434335
22	0xbb865d27	-0.00410046
23	0x3cfe7a87	0.031064285
24	0xbb25bead	-0.0025290654
25	0xbc382e99	-0.0112415785
26	0xbd11c1fe	-0.035585396
27	0xbdc089f9	-0.09401316
28	0x3d98a308	0.07452971
29	0xbd8a5240	-0.06753969
30	0xbd818c23	-0.06325557
31	0xbcca3a93	-0.024686133
32	0xbd92ab6b	-0.07161602
33	0xbcf85c44	-0.030317433
34	0x3d219240	0.039446115
35	0xbc920522	-0.017824713
36	0xbd0c4351	-0.034243885
37	0x3ccb7a90	0.024838716
38	0xbd14fdd1	-0.03637487
39	0xbd88ff3c	-0.06689307
40	0x3d0ce8e9	0.034401808
41	0xbcbe62a8	-0.023240402
42	0xbe28646c	-0.16444558
43	0xbd8e6e51	-0.06954635
44	0x3d7c68a8	0.061623245
45	0x3ca8c33b	0.020600906
46	0xbd9cb74f	-0.07652151
47	0x3ce307c4	0.027713664
48	0x3d99b8de	0.07505964
49	0xbe39814d	-0.1811573
50	0xbe0d77ac	-0.13815182
51	0x3d210cf7	0.039319005
52	0x3d263cf5	0.040585477
53	0xbd47032d	-0.048587013
54	0xbd1a5c3d	-0.03768562
55	0xbd21fce9	-0.039547835
56	0xbd09511d	-0.03352462
57	0x3d6c1de3	0.05764569
58	0xbe0997b8	-0.13436782
59	0xbd0915ae	-0.03346794
60	0x3de332cf	0.11093675
61	0x3dba97d0	0.09110987
62	0xbde7e307	-0.11322599
63	0x3cf6ed39	0.030142413
64	0x3ca74280	0.020417452
65	0xbd3760df	-0.044770118
66	0xbce15de7	-0.027510596
67	0x3ddf2df6	0.10897438
68	0x3ca7d223	0.020485943
69	0xbda6dcdb	-0.081475936
70	0x3d15df1a	0.03658972
71	0x3d316095	0.043305
72	0x3dcc0403	0.09961703
73	0xbd3ec424	-0.046573773
74	0xbd1bbc42	-0.038021334
75	0x3d5c2d83	0.05375434
76	0x3e375278	0.17902553
77	0x3d09eee0	0.033675075
78	0xbce98fee	-0.028511014
79	0x3d93bfc6	0.07214312
80	0x3e1b09f7	0.1514052
81	0xbdb2901b	-0.08718892
82	0x3ce91211	0.028450998
83	0xbdaaee7d	-0.08346269
84	0xbd96136c	-0.07327923
85	0x3d533600	0.05156517
86	0xbcf2db23	-0.029645508
87	0xbadee726	-0.0017006143
88	0x3dcd0c0c	0.100120634
89	0xbbf56d6f	-0.007489852
90	0x3ddc7368	0.107641995
91	0x3c19b38e	0.009381188
92	0x3e9546d7	0.2915561
93	0x3de5faaa	0.11229451
94	0xbe5015d2	-0.20320824
95	0x3db36b2b	0.08760675
96	0x3c8b96cc	0.017039679
97	0xbe854664	-0.26030266
98	0xbd49df13	-0.049285006
99	0xbdf83c4c	-0.12120876
100	0xbe215060	-0.15753317
101	0xbe2b4d11	-0.16728617
102	0xbda87b87	-0.08226686
103	0xbe5f3f65	-0.21801527
104	0xbe072527	-0.13197766
105	0xbc6594c7	-0.014012522
106	0xbe001812	-0.12509182
107	0xbe7e9332	-0.24860838
108	0xbcc7f6da	-0.0244097
109	0x3de13fc8	0.109984934
110	0xbe25d032	-0.16192701
111	0xbc2a1afa	-0.010382408
112	0x3dafb1da	0.08578844
113	0xbd1cb0d6	-0.03825458
114	0x3ba5be41	0.0050580804
115	0x3d9369e5	0.07197932
116	0x3d67e58c	0.056615397
117	0x3d025c90	0.031826556
118	0x3d8b12bd	0.067906834
119	0xbd41ad06	-0.04728415
120	0x3d6b0acc	0.057383344
121	0x3e310038	0.1728524
122	0x3d1dde2d	0.03854196
123	0xbd1f6112	-0.038910933
124	0x3d5a8b7f	0.05335569
125	0x3d7249d4	0.05915244
126	0xbd03e0bf	-0.032196756
127	0x3d909a6d	0.070607044
128	0xbd4140fc	-0.047181115
129	0xbdfdbe82	-0.12389852
130	0x3dfdf26d	0.12399755
131	0x3e3d1886	0.18466386
132	0xbdd156ee	-0.10221659
133	0xbdae1690	-0.08500397
134	0x3db52ea8	0.088467896
135	0x3c83ae96	0.01607446
136	0x3de2c996	0.11073606
137	0x3d55c0b6	0.052185737
138	0xbe049c4b	-0.12950246
139	0x3e0f933d	0.1402101
140	0x3dd94ce6	0.1061037
141	0xbd2f0e17	-0.042738046
142	0x3cf9e86d	0.030506337
143	0x3df8b38c	0.12143621
144	0x3cfb8152	0.030701313
145	0xbdcf7030	-0.1012882
146	0x3e78884e	0.24270746
147	0xbd773ffd	-0.06036376
148	0xbd906836	-0.07051127
149	0xbd6e6597	-0.058202352
150	0xbdc97127	-0.09836035
151	0xbe0f5ded	-0.14000674
152	0x3db710a7	0.08938723
153	0x3d48cfe4	0.049026385
154	0x3c8e8bbe	0.017400619
155	0x3d4b65f0	0.049657762
156	0xbdf8a890	-0.12141526
157	0xbdc546fc	-0.0963268
158	0x3ab23107	0.0013594934
159	0xbe398b71	-0.18119599
160	0xbdbde7ad	-0.09272704
161	0x3c5d9c4f	0.013526036
162	0xbd193b5a	-0.037410118
163	0xbd32af68	-0.04362431
164	0xbb595206	-0.0033160462
165	0x3d05c406	0.032657646
166	0xbd60cf45	-0.054885168
167	0xbdca71ba	-0.09884973
168	0xbd424570	-0.047429502
169	0x3d6be833	0.05759449
170	0x3d19dc74	0.037563756
171	0xbd345b14	-0.04403217
172	0xbe6aba3a	-0.22922602
173	0xbd8a62d5	-0.06757132
174	0x3d86e690	0.06586945
175	0x3cc5ad07	0.024130357
176	0xbe1df9fd	-0.15427394
177	0xbdeeef15	-0.11666695
178	0xbd69ab91	-0.057048384
179	0x3de802c6	0.11328654
180	0x3d379e0c	0.04482846
181	0xbe2b5ca4	-0.16734558
182	0x3e00aa36	0.1256493
183	0x3d36632a	0.044528164
184	0xbea4a4e2	-0.32157046
185	0xbdb3c95d	-0.087786414
186	0xbbdca32c	-0.006733319
187	0xbe944a6c	-0.2896303
188	0xbc48606d	-0.012230021
189	0x3d5fa1df	0.05459773
190	0xbe49312c	-0.19647664
191	0x3cc3d3a3	0.023904627
192	0xbd8a9787	-0.06767183
193	0xbe47e48b	-0.19520776
194	0xbda00e38	-0.07815212
195	0xbdaf699e	-0.08565067
196	0xbccca017	-0.02497868
197	0x3db40090	0.0878917
198	0x3c457323	0.0120513765
199	0xbcfeb4ec	-0.03109213
200	0xbe04f0f7	-0.12982546
201	0xbd5e3a69	-0.054254923
202	0x3da4ecc9	0.08052976
203	0xbc78a353	-0.015175658
204	0xbdbeca9a	-0.09315987
205	0x3d830714	0.063978344
206	0xbd5771a9	-0.05259863
207	0xbd7dd50a	-0.061970748
208	0x3db1dfc2	0.086852565
209	0xbdd6dc0e	-0.10491191
210	0xbdd8722d	-0.10568652
211	0xbcb18f95	-0.02167491
212	0xbcb73292	-0.022362981
213	0xbda0ea60	-0.078572035
214	0x3d2f09d8	0.042733997
215	0x3c1b2fa0	0.009471804
216	0x3dcba6ab	0.09943899
217	0x3d5e5531	0.054280464
218	0xbdd764f1	-0.105173
219	0x3c14d208	0.0090832785
220	0x3e25b4cb	0.16182248
221	0xbdaf367f	-0.08555316
222	0xbd495401	-0.049152378
223	0x3df6c0a3	0.12048461
224	0xbc8d0042	-0.017212037
225	0xbaee201d	-0.001816753
226	0x3cec203a	0.02882396
227	0xbdefb5c2	-0.117045894
228	0xbdb46a88	-0.08809382
229	0x3d745206	0.059648536
230	0xbdb8c368	-0.09021646
231	0xbdb2c296	-0.087285206
232	0x3da56353	0.08075585
233	0x3d5b6715	0.053565104
234	0x3d1408a3	0.03614105
235	0x3d85516c	0.065096706
236	0xbde6dc6c	-0.11272511
237	0xbd2670c4	-0.040634885
238	0x3d149ae1	0.036280517
239	0xbd87c599	-0.06629486
240	0xbda3b258	-0.07993001
241	0x3e00f062	0.12591699
242	0x3c26ef0e	0.010188831
243	0xbdd37489	-0.10324962
244	0xbdae4693	-0.08509555
245	0x3daf73b1	0.08566988
246	0xbc863135	-0.016380886
247	0xbd55bf02	-0.052184112
248	0x3e91a549	0.28446415
249	0x3e58bcae	0.21165726
250	0x3d9b50b0	0.07583749
251	0x3c543597	0.01295223
252	0xbd2ec3b8	-0.04266712
253	0x3d8336d7	0.06406944
254	0xbe0ea6b6	-0.13930783
255	0xbcd087f1	-0.025455447

conv2.bias f4 [64]
0	0xbd0e3294	-0.034716204
1	0xbd3a16ec	-0.045432016
2	0xbca6c417	-0.020357175
3	0xbbf08914	-0.0073405597
4	0xbd14e623	-0.036352288
5	0x3d43e5ca	0.047826566
6	0x3d3128c8	0.043251783
7	0x3cb28e9d	0.021796519
8	0xbb41b19e	-0.002955533
9	0x3cd66db2	0.026175354
10	0x3c23fcc1	0.010008992
11	0x3cd9edaa	0.026602585
12	0xbcd6f3a3	-0.026239222
13	0x3d3ca8b4	0.046059325
14	0xbd74acff	-0.059735294
15	0xbd888977	-0.06666844
16	0xbdbfe6e2	-0.09370209
17	0x3cbc54ca	0.02298965
18	0xbb211d41	-0.0024584087
19	0xbd845948	-0.064623415
20	0x3cb2eba1	0.021840872
21	0xbccd7bad	-0.025083387
22	0x3d118338	0.03552553
23	0x3d954294	0.072880894
24	0xbce1de7a	-0.027571905
25	0xbc68ad53	-0.01420148
26	0x3b931c15	0.0044894316
27	0xbc8a4f57	-0.016883535
28	0x3d9703b3	0.073737524
29	0xbd6457d0	-0.055747807
30	0x3d006487	0.03134587
31	0xbc408bf0	-0.011752114
32	0xbd06675a	-0.032813407
33	0x3cfc0dca	0.030768294
34	0xbd2e88ab	-0.042610805
35	0x3c7e3524	0.015515599
36	0xbd6b6647	-0.057470586
37	0xbcf30f5d	-0.029670412
38	0xbd4fbc45	-0.050716657
39	0x3d4f23b2	0.05057115
40	0xbd010cf0	-0.03150648
41	0xbb1e4777	-0.0024151483
42	0x3c9ea19f	0.019364176
43	0xbd606042	-0.0547793
44	0x3c8c4905	0.017124662
45	0xbd2868f6	-0.041115724
46	0xbb32b608	-0.0027269144
47	0xbd0143d5	-0.03155883
48	0xbd7856c2	-0.060629614
49	0x3d2458a5	0.0401236
50	0x3bb97843	0.0056600883
51	0xbda5c8b0	-0.08094919
52	0xbd4e4c20	-0.050365567
53	0x3d6122a9	0.054964695
54	0xbcf4a79f	-0.029865084
55	0x3d7848c3	0.060616266
56	0x3cf64228	0.030060843
57	0x3ca4040e	0.020021465
58	0x3c90d894	0.017681397
59	0x3d687206	0.056749366
60	0xbcd02415	-0.02540783
61	0xbd34c817	-0.044136133
62	0x3c643f5b	0.013931121
63	0xbd1a68bc	-0.03769754

conv3.weight f4 [64, 64, 3, 3]
0	0x3d5fd5b4	0.054647163
1	0x3d4a00de	0.049317233
2	0x3d0bf59c	0.03416978
3	0x3d4b2137	0.049592223
4	0xbd15bd6e	-0.036557607
5	0x3dc1b241	0.09457827
6	0x3d3effe2	0.046630748
7	0xbd682eb1	-0.056685153
8	0x3d4ef2cf	0.05052453
9	0x3bd81431	0.006594204
10	0x3d22e250	0.03976661
11	0x3db9893b	0.09059378
12	0xbd154452	-0.03644211
13	0xbbed8680	-0.0072486997
14	0x3e237df4	0.15966016
15	0x3cdecdbe	0.027197715
16	0xbb85defd	-0.00408542
17	0xbc6cd8e8	-0.014456011
18	0xbd3212f4	-0.043475106
19	0xbdef6887	-0.11689859
20	0xbe04ac22	-0.12956288
21	0xbcb9b9de	-0.022671636
22	0xbdb01f32	-0.085997
23	0x3cc889f2	0.02447984
24	0x3df18955	0.11793772
25	0xbdc97b6c	-0.09837994
26	0x3d551975	0.05202623
27	0x3cb1f445	0.021722922
28	0x3d9531e4	0.072849065
29	0x3d0d6745	0.034522314
30	0xbd0627cd	-0.0327528
31	0xbd904f3c	-0.07046363
32	0x3ce4663c	0.02788078
33	0xbe012511	-0.12611796
34	0xbc16126f	-0.009159668
35	0x3d592c52	0.053020783
36	0xbdaf3d12	-0.0855657
37	0xbd61b16c	-0.055100843
38	0x3c392b6e	0.011301858
39	0xbc582639	-0.013192707
40	0xbd35d096	-0.044388376
41	0xbbd17245	-0.006391796
42	0x3cacbd8c	0.021086477
43	0xbd936a30	-0.07197988
44	0x3c2f823e	0.0107122045
45	0x3b02cafc	0.0019957414
46	0x3cc7132a	0.02430113
47	0x3ccf3a6a	0.025296409
48	0xbd18e243	-0.037325155
49	0x3c082196	0.008308789
50	0x3d9e2be2	0.07723214
51	0xbd9e7ae0	-0.0773828
52	0xb89ca63b	-7.4696225e-05
53	0x3d93ad96	0.07210843
54	0xbd8abee1	-0.067746885
55	0xbd3f7a73	-0.046747636
56	0x3cf4476b	0.029819211
57	0x3c8dff87	0.017333759
58	0x3c194c59	0.009356582
59	0xbdc344a1	-0.09534574
60	0x3cf05a2c	0.029339872
61	0x3cc57280	0.02410245
62	0xb9c091a4	-0.00036729604
63	0xbd99a9af	-0.07503068
64	0x3b431bfa	0.0029771314
65	0xba825a60	-0.0009945147
66	0x3d193552	0.037404366
67	0xbde2d90e	-0.11076556
68	0x3da2b326	0.07944326
69	0x3d94f82e	0.07273899
70	0xbd4de3cb	-0.05026607
71	0x3dc1c612	0.09461607
72	0x3d9d29a9	0.07673962
73	0x3dadc693	0.08485141
74	0xbcc01a69	-0.023450093
75	0x3ca3fb32	0.02001724
76	0xbd103a6e	-0.035211973
77	0xbdbed35d	-0.09317658
78	0xbd7a8056	-0.061157547
79	0xb997c8a1	-0.00028950445
80	0xbd7fc265	-0.06244125
81	0xbe1ae5ec	-0.1512677
82	0xbd4f7a65	-0.050653834
83	0xbdae9e7a	-0.08526321
84	0xbcb01f8d	-0.02149942
85	0xbdcf3cf1	-0.101190455
86	0x3c8349c3	0.016026383
87	0x3d8107c5	0.0630031
88	0xbd049d7d	-0.032376755
89	0x3ca087a2	0.019595925
90	0xbdfb707c	-0.12277314
91	0xbe022f10	-0.12713265
92	0xbdae701d	-0.08517478
93	0xbcdabe3d	-0.02670204
94	0x3d3a41d2	0.045472927
95	0xbd8ee6da	-0.06977625
96	0x3d591172	0.052995153
97	0x3d649087	0.055801895
98	0xbc439bee	-0.011939032
99	0x3cbf13dc	0.0233249
100	0xbd84c3ec	-0.06482682
101	0x3cd7c155	0.026337305
102	0x3c83db41	0.01609576
103	0xbcaef31d	-0.02135616
104	0x3c344d4d	0.011004758
105	0x39360428	0.00017358421
106	0x3d06ccde	0.03291022
107	0x3d7084ae	0.058720283
108	0xbe00de58	-0.12584817
109	0x3a2c3c40	0.0006570257
110	0xbdcae3c3	-0.09906723
111	0xbd23b4d0	-0.039967358
112	0x3d2e3e3d	0.042539824
113	0xbdee8211	-0.11645902
114	0xb99d7c71	-0.0003003809
115	0x3c7a7f3b	0.015289123
116	0x3d318ebc	0.043349013
117	0x3d0c401b	0.034240823
118	0x3b1ff377	0.002440659
119	0xbbf03510	-0.0073305443
120	0xbcbbc3ef	-0.022920577
121	0xbd97c89b	-0.07411309
122	0x3d0a8cde	0.033825748
123	0xbd60b664	-0.05486144
124	0x3cadbbfa	0.021207798
125	0x3d5c06d4	0.05371745
126	0xbe4f375c	-0.20235962
127	0xbd9e8955	-0.07741038
128	0xbd826bac	-0.06368193
129	0xbbdabb0e	-0.0066751307
130	0x3d8679c3	0.06566193
131	0x3db5c223	0.08874919
132	0xbce7036e	-0.028199878
133	0xbcf02d63	-0.029318517
134	0xbc3e192f	-0.011602684
135	0xbde76993	-0.112994336
136	0xbd032ba7	-0.032024052
137	0x3d8bf6cb	0.068341814
138	0xbb05859a	-0.0020373822
139	0xbd531b0e	-0.051539473
140	0x3d30cb06	0.04316237
141	0x3d119576	0.035542928
142	0x3c8aba47	0.016934527
143	0x3d2a860c	0.041631743
144	0xbdc5f9c0	-0.09666777
145	0x3bf03fae	0.00733181
146	0xbd699291	-0.057024542
147	0x3da3f255	0.080052055
148	0x3d8a688b	0.06758221
149	0x3d8fe4ee	0.07026087
150	0x3bf7e924	0.0075656343
151	0xbc39c0c7	-0.011337466
152	0x3d6726ae	0.056433372
153	0xbcf87060	-0.030327022
154	0xbdedb17b	-0.11606117
155	0xbd610f44	-0.0549462
156	0x3c355b81	0.0110691795
157	0xbdaf2f1e	-0.08553909
158	0x3d6d9997	0.058007803
159	0x3d8af933	0.06785812
160	0xbddca2a4	-0.10773209
161	0x3c8212c9	0.015878098
162	0xbdf97611	-0.121807225
163	0xbd358146	-0.044312738
164	0xbd4dfc06	-0.050289176
165	0x3c0e95b5	0.008702685
166	0xbe17a8e6	-0.14810523
167	0x3d022d21	0.03178132
168	0x3e2044d4	0.15651256
169	0xbd8de207	-0.06927877
170	0x3d1354d1	0.03596956
171	0x3d5264fc	0.051365837
172	0x3d1cefd9	0.038314674
173	0xbe1138fc	-0.14181894
174	0x3d48165d	0.048849452
175	0xbcd93428	-0.026514128
176	0xbb276277	-0.0025540867
177	0xbc78f8f1	-0.015196071
178	0xbd042aa4	-0.032267228
179	0x3c810031	0.015747162
180	0x3d4015de	0.046895854
181	0x3dd6af45	0.10482649
182	0xbd323144	-0.043504015
183	0xbd30c8c6	-0.043160222
184	0x3d9ba134	0.075991064
185	0x3c240334	0.010010529
186	0x3d90c9ce	0.07069741
187	0xbcaa9329	-0.020822125
188	0xbd6f469a	-0.05841694
189	0xbd52e6d5	-0.05148967
190	0x3c324f2a	0.010883132
191	0x3da6e0c8	0.08148342
192	0xbd389388	-0.04506257
193	0x3d88d99a	0.06682129
194	0x3d50b416	0.050952993
195	0x3c54f9a1	0.012998969
196	0x3b582916	0.0032983474
197	0x3b82af94	0.0039882157
198	0xbd7533ec	-0.05986397
199	0xbce7a8f5	-0.028278807
200	0xbc2bd553	-0.010487872
201	0x3d8e2e3a	0.06942411
202	0x3c710de7	0.014712787
203	0x3e19d61e	0.15023085
204	0x3d01002a	0.031494297
205	0xbd8539b8	-0.065051496
206	0x3c34e004	0.011039738
207	0x3c996c75	0.018728474
208	0xbd4d7019	-0.050155733
209	0x3ba52317	0.0050395834
210	0xbc9838b4	-0.018581726
211	0xbd27c2d7	-0.040957298
212	0x3d208c81	0.039196495
213	0x3cc3e8e9	0.023914771
214	0x3c65eb97	0.01403322
215	0x3dac7ee8	0.08422643
216	0xbc95059d	-0.018191153
217	0xbcad3d41	-0.021147372
218	0xbd1768fb	-0.03696535
219	0xbd5aa564	-0.053380385
220	0x3c27d1cd	0.0102428915
221	0xbbfdf20f	-0.007749803
222	0x3c02afdd	0.007976499
223	0xbbaf2448	-0.0053449012
224	0xbc9007e6	-0.017581891
225	0x3dacac3a	0.08431287
226	0x3d914f35	0.07095186
227	0x3a49c0a6	0.00076962484
228	0xbd63a877	-0.055580582
229	0xbcc48814	-0.023990668
230	0xbd8f8b71	-0.07009018
231	0xbcebf4b0	-0.0288032
232	0xbc877af1	-0.016538115
233	0xbd8f826c	-0.07007298
234	0x3d18c54d	0.037297536
235	0x3c253913	0.010084408
236	0xbd43b82f	-0.047783073
237	0xbd1ac786	-0.037787937
238	0xbe00fc3f	-0.12596224
239	0x3bbbdcfc	0.0057331305
240	0xbdb4e889	-0.08833415
241	0x3b98ce35	0.0046632537
242	0x3d97861a	0.07398625
243	0xbd335936	-0.04378625
244	0x3cb5192c	0.02210673
245	0xbd480f27	-0.048842575
246	0x3bd5a780	0.0065202117
247	0xbd728066	-0.05920448
248	0xbd74de7c	-0.05978249
249	0xbc83de7c	-0.0160973
250	0xbc7ae7e9	-0.015314081
251	0xbd23b079	-0.03996322
252	0x3ad43e26	0.0016192838
253	0xba4a0310	-0.0007706145
254	0xbc0e90db	-0.008701528
255	0x3c273a8f	0.010206833

conv3.bias f4 [64]
0	0xbce7fbd6	-0.028318327
1	0xba058ef4	-0.0005094849
2	0xbd046032	-0.0323183
3	0xbd9aadbb	-0.07552668
4	0xbc9998fd	-0.018749708
5	0xbd5a6493	-0.05331857
6	0xbd029ccd	-0.031887818
7	0xbbc717ac	-0.00607582
8	0xbad809aa	-0.0016482372
9	0x3b66a06c	0.0035190834
10	0xbcaa9af5	-0.020825842
11	0xbd0c1fd8	-0.034210056
12	0xbd32ab4c	-0.043620393
13	0xbcbc5deb	-0.022994002
14	0xbd390839	-0.045173857
15	0xbda9441a	-0.082649425
16	0xbdd8fff4	-0.10595694
17	0xbd2eced9	-0.042677734
18	0xbd014f1d	-0.03156959
19	0xbd2dea7d	-0.042459954
20	0xbd51c00b	-0.051208537
21	0xbd5e670a	-0.054297484
22	0xbd298332	-0.041384883
23	0xbd2c9762	-0.042136557
24	0xbc538255	-0.012909492
25	0xbc7fb5d8	-0.01560732
26	0xbd8d8bf1	-0.06911457
27	0xbd0d088a	-0.03443197
28	0xbc6ade2c	-0.014335196
29	0xbd121019	-0.035659883
30	0x3cdf605a	0.027267624
31	0x3ccc9067	0.0249712
32	0x3c67e209	0.014153012
33	0xbbabd3ed	-0.0052437694
34	0xbd8f3118	-0.06991786
35	0xbd2e3b72	-0.04253716
36	0xbbabc4a4	-0.0052419472
37	0xbcb80960	-0.022465408
38	0xbd64b793	-0.055839133
39	0xbd4c37af	-0.04985779
40	0xbd51c999	-0.05121765
41	0xbd589321	-0.052874688
42	0xbdbb20fe	-0.09137152
43	0xbd97e487	-0.07416635
44	0xbd2cd0cb	-0.042191308
45	0xbb5b31c5	-0.0033446413
46	0x3c9d3a6c	0.019192897
47	0x3c111e8f	0.008857383
48	0xbd464ff2	-0.048416086
49	0x3d36386c	0.0444874
50	0xbc0a9466	-0.0084582325
51	0xbd0c8c8a	-0.034313716
52	0xbd80d17d	-0.06289957
53	0xbcc240fc	-0.023712628
54	0xbd4e6b0a	-0.05039505
55	0xbd9cca2e	-0.0765575
56	0xbdb0989a	-0.086228564
57	0xbc3908a7	-0.011293567
58	0xbd0d9db1	-0.034574214
59	0xbd7a53e0	-0.061115146
60	0xbbcb582c	-0.0062055793
61	0xbcaf9a0b	-0.021435758
62	0xbd96528c	-0.07339963
63	0x3cd93a57	0.026517076

fc1.weight f4 [128, 576]
0	0xbd6af319	-0.057360742
1	0xbcd804ce	-0.026369479
2	0x3e16a9e5	0.14713247
3	0xbd36d088	-0.044632465
4	0x3bf3c642	0.0074394057
5	0xbd10612a	-0.035248913
6	0x3c385036	0.0112495925
7	0x3ce6eead	0.028189981
8	0x3cd733a4	0.026269741
9	0xbc9d4196	-0.019196313
10	0xbd97dc79	-0.07415099
11	0xbde6f814	-0.11277786
12	0x3cfac51f	0.030611573
13	0xbcc8f128	-0.024529055
14	0x3d642778	0.055701703
15	0xbd8362fe	-0.06415366
16	0xbd7940ba	-0.060852744
17	0x3b62b715	0.0034593989
18	0x3c55dc9a	0.013053084
19	0x3cbebf03	0.02328444
20	0xbc60287d	-0.013681528
21	0xbd665497	-0.056233015
22	0xbcdc03cc	-0.02685728
23	0xbd9bc957	-0.07606762
24	0x3c44af50	0.012004688
25	0x3cba02b5	0.022706369
26	0x3dfc1899	0.12309379
27	0x3d763550	0.060109437
28	0x3d2080da	0.039185382
29	0xbc8a8072	-0.01690695
30	0x3d20d321	0.03926385
31	0x3c90e36d	0.01768657
32	0x3ccf94e5	0.025339553
33	0x3c398315	0.011322756
34	0xbbf3b8ce	-0.007437802
35	0xbd771575	-0.060323197
36	0xbd36e14d	-0.044648457
37	0xbd70b8ad	-0.05876987
38	0x3dcd731e	0.100317225
39	0x3b93732b	0.004499813
40	0xbba76f6b	-0.0051097176
41	0xbc2e7ccd	-0.010649872
42	0xbd958842	-0.0730138
43	0x3c77c6b7	0.015123061
44	0xbc5cc379	-0.013474339
45	0x3d092399	0.033481214
46	0xbc22b459	-0.009930694
47	0xbd8cebf8	-0.06880945
48	0x3d8f5ff0	0.070007205
49	0xbd0242aa	-0.031801857
50	0xbd4034e2	-0.046925433
51	0xbd3cc3ba	-0.046085097
52	0xbd3a7902	-0.04552556
53	0xbd908798	-0.070571125
54	0xbbe96f0f	-0.007123835
55	0xbcc70036	-0.024292093
56	0xbd74f71d	-0.059805978
57	0x3cae4c49	0.02127661
58	0xbdc3aa2b	-0.09553941
59	0xbc47123a	-0.012150342
60	0x3d44d399	0.048053358
61	0xbe2d9528	-0.1695143
62	0xbd0f3252	-0.0349601
63	0xbc34111c	-0.010990407
64	0xbb08fef9	-0.0020903929
65	0xbc5e60ca	-0.013572881
66	0x3d1d4cda	0.03840337
67	0x3cc55021	0.02408606
68	0xbe0135ba	-0.12618151
69	0xbd423e19	-0.047422502
70	0x3c9f524f	0.019448427
71	0xbd9fcd78	-0.07802862
72	0x3c8dc536	0.017305952
73	0xbd733e8f	-0.059385832
74	0x3c193646	0.009351319
75	0x3d579e4b	0.052641194
76	0x3db1e4e5	0.08686236
77	0xbbbf9988	-0.00584716
78	0xbcac9a8e	-0.021069791
79	0x3cb3d3e3	0.021951621
80	0x3d8356ea	0.06413062
81	0xbcdf87ad	-0.027286375
82	0xbda62996	-0.08113401
83	0x3ca150bd	0.01969182
84	0x3cf0438e	0.029329088
85	0xbdc9863c	-0.09840056
86	0x3cbeeb9f	0.023305712
87	0xbc8e12a4	-0.017342873
88	0x3d942c08	0.07234961
89	0x3b857689	0.0040729684
90	0x3cbebc52	0.023283157
91	0x3d027bee	0.03185647
92	0xbd8b8316	-0.06812112
93	0x3d94c160	0.07263446
94	0xbba84d21	-0.0051361476
95	0x3ca26dd2	0.019827757
96	0xbd2a4fcd	-0.04158001
97	0x3c1e3b3d	0.009657678
98	0xbd4a3e3a	-0.04937575
99	0x3d03ad17	0.032147493
100	0xbd09a6b6	-0.033606254
101	0x3b5b91d6	0.0033503673
102	0xbd1021bc	-0.03518842
103	0x3d06c4f7	0.032902684
104	0xba80ee71	-0.0009836686
105	0x3d393853	0.04521973
106	0xbc30cc42	-0.010790886
107	0xbce8fe34	-0.028441526
108	0xbdce2869	-0.100663014
109	0xbdbfe106	-0.09369092
110	0x3dea0a6d	0.1142777
111	0x3c5ef4d8	0.01360818
112	0xbda2ccc3	-0.079492114
113	0xbc4ffc6b	-0.0126944585
114	0x3e163fb8	0.14672744
115	0xbc6ce496	-0.014458796
116	0x3ca3b04f	0.019981531
117	0x3befca14	0.0073177908
118	0xbc6560f5	-0.014000167
119	0xbda6960a	-0.081340864
120	0x3d7adc14	0.06124504
121	0x3b8c6b19	0.004285228
122	0x3d80c0c0	0.06286764
123	0x39c860f6	0.00038219214
124	0xbd2bd1c3	-0.04194809
125	0xbca05f33	-0.019576645
126	0xbd367221	-0.044542436
127	0x3ce433a1	0.02785665
128	0xbd7294b9	-0.059223864
129	0xbc3ce483	-0.011529091
130	0xbce84e69	-0.028357701
131	0xbcdc3218	-0.026879355
132	0xbc6d4fae	-0.014484329
133	0xbbbcb934	-0.0057593826
134	0x3d2a8d37	0.04163858
135	0x3c92bcf3	0.017912364
136	0xbc0d48b8	-0.0086232945
137	0xbc6b5a28	-0.014364757
138	0x3d8a3523	0.06748416
139	0x3d0ebd01	0.034848217
140	0x3d99139f	0.074744456
141	0x3c9a40c9	0.01882972
142	0xbd8c505d	-0.068512656
143	0xbcac7275	-0.021050671
144	0x3e006b4a	0.12540928
145	0x3d57c91c	0.052682027
146	0x3dd5683b	0.10420271
147	0xbc0970bc	-0.008388694
148	0xbcae2092	-0.021255765
149	0xbdaa1963	-0.083056234
150	0xbcdc1a3a	-0.026867975
151	0xbd127d0c	-0.035763785
152	0xbcc20947	-0.023686064
153	0x3cf7d4ba	0.030252803
154	0x3dac2d1b	0.08407041
155	0xbde23229	-0.110447235
156	0xbe080145	-0.13281734
157	0x3cf51aaf	0.02991995
158	0xbd13ecbe	-0.036114447
159	0xbdfb2237	-0.12262385
160	0xbced0c05	-0.028936395
161	0xbd8ced2a	-0.06881173
162	0x3da44c98	0.080224216
163	0xbd62b9ad	-0.055352855
164	0xbdc08490	-0.09400284
165	0xbcaa5507	-0.020792497
166	0x3d3c6933	0.045998763
167	0xbd26ed61	-0.040753726
168	0x3d77ef7c	0.060531124
169	0x3b9438e2	0.0045233825
170	0x3b7cd88a	0.0038581216
171	0x3d3b10f9	0.045670483
172	0xbd6d5fae	-0.057952575
173	0x3dabca90	0.08388245
174	0xbcde64ed	-0.027147735
175	0xbd115070	-0.0354771
176	0xbb344acc	-0.0027510403
177	0xbd06ed3a	-0.03294108
178	0xbd861540	-0.06547022
179	0xbc5b03f9	-0.013367646
180	0x3d17df6a	0.0370783
181	0xbe632700	-0.22182846
182	0xbe0b68ef	-0.13614248
183	0xbb810344	-0.003937157
184	0x3931d20e	0.00016958287
185	0x3ce6ce90	0.028174669
186	0xbcb5b4f0	-0.022181004
187	0x3c3141d3	0.010818916
188	0x3c3c19bf	0.011480748
189	0x3d944894	0.07240406
190	0x3d7f0105	0.06225683
191	0xbd817af1	-0.06322277
192	0xbd92493e	-0.07142876
193	0x3caba715	0.020953694
194	0xbcabe00c	-0.020980857
195	0x3b93f049	0.004514728
196	0xbcc04baa	-0.02347358
197	0xbcd6715f	-0.026177106
198	0x3d3c873b	0.046027403
199	0x3d01db6a	0.03170339
200	0xbd94fb9d	-0.07274554
201	0xbc1a13fb	-0.009404178
202	0xbc8e4284	-0.017365701
203	0xbc6aba96	-0.014326712
204	0x3ca0b800	0.019618988
205	0x3bd84b6f	0.0066007893
206	0xbd85fc10	-0.06542218
207	0x3d80884f	0.06275999
208	0x3c8477a7	0.016170336
209	0xbd9e326b	-0.0772446
210	0xbd8ec07b	-0.069703065
211	0xbd0667a8	-0.032813698
212	0xbd599069	-0.053116236
213	0x3dbf63f1	0.09345234
214	0xbb5b9402	-0.0033504968
215	0xbc419c56	-0.011817059
216	0x3bee5a9e	0.007273986
217	0x3d9b95ec	0.07596955
218	0xbd4a3dfa	-0.04937551
219	0xbad02259	-0.0015879377
220	0x3cdd8e98	0.027045533
221	0xbd860ef6	-0.06545822
222	0x3d396632	0.045263477
223	0xbd93dcc9	-0.07219846
224	0x3b7cc053	0.0038566783
225	0x3d4abdf9	0.04949758
226	0x3d7fbd02	0.06243611
227	0x3d6ef59a	0.058339693
228	0x3d626c59	0.05527911
229	0x3dae84d0	0.08521426
230	0xbe0e1779	-0.13876142
231	0x3d1fff47	0.03906181
232	0xbd5ce1f4	-0.053926423
233	0xbd5b5445	-0.053547163
234	0x3cad9702	0.02119017
235	0x3d218c92	0.0394407
236	0xbce630aa	-0.028099377
237	0x3d07cf53	0.033156704
238	0xbd809148	-0.0627771
239	0xbcc5bf8a	-0.024139185
240	0xbcc85c17	-0.024457974
241	0x39354f3b	0.00017291021
242	0xbc02c340	-0.007981122
243	0xbe08cce9	-0.13359417
244	0xbcc41c59	-0.023939298
245	0x3d75f17c	0.06004475
246	0xbcb0c85e	-0.021579918
247	0xbd7fb246	-0.062425874
248	0xbcc404f4	-0.023928143
249	0x3dd82959	0.105547614
250	0xbc9e3c7a	-0.019315947
251	0x3df41bdd	0.11919377
252	0xbd4fb2d1	-0.050707642
253	0x3cedd879	0.029033886
254	0x3c4b39b5	0.012403895
255	0x3d2c2319	0.04202566

fc1.bias f4 [128]
0	0x3c22a001	0.009925843
1	0xbda4b806	-0.08042912
2	0xbcbd6c91	-0.023123058
3	0x3cc836d2	0.024440203
4	0xbd5c4ca8	-0.053784043
5	0xbcd8e126	-0.026474547
6	0xbccbee63	-0.024893945
7	0x3d86a20e	0.06573878
8	0xbba42f21	-0.005010501
9	0xbd1e2966	-0.0386137
10	0x3d16d952	0.036828347
11	0xbcba4676	-0.022738677
12	0x3d034a1d	0.0320531
13	0xbc36e1cb	-0.011162232
14	0xbce4f6ef	-0.027949778
15	0x3d2d3a47	0.042291906
16	0xbd21bc54	-0.039486244
17	0x3d15731a	0.036486723
18	0xbc79d3a9	-0.015248218
19	0x3c7e15d9	0.015508139
20	0xbd069f47	-0.032866742
21	0xbbae57db	-0.005320532
22	0xbcc37f93	-0.023864543
23	0x3d4955a1	0.049153928
24	0x3c9a5226	0.018838
25	0xbd4c98d5	-0.04995044
26	0xbd0448b2	-0.03229589
27	0xbccd24fb	-0.025042048
28	0xbbf106c3	-0.0073555424
29	0xbccc9749	-0.024974482
30	0xbaf826e5	-0.001893249
31	0xbb5ae47b	-0.0033400345
32	0x3bdde99e	0.006772234
33	0xbc986dfe	-0.018607136
34	0x3d9012a3	0.07034805
35	0xbcefadb1	-0.029257627
36	0xbd1a6a0e	-0.037698798
37	0x3cd432ae	0.025903072
38	0x3c455477	0.012044064
39	0xbd18a19d	-0.0372635
40	0x3c50b947	0.012739486
41	0xbd0bda5f	-0.0341438
42	0x3d4cd284	0.05000545
43	0xbc63a9ed	-0.013895494
44	0xbca026e9	-0.019549804
45	0xbd21661a	-0.039404012
46	0x3d6ddac6	0.058069967
47	0xbbd1e492	-0.0064054215
48	0xbb301f24	-0.002687403
49	0xbcc45023	-0.023963993
50	0x3c8b8ffc	0.01703643
51	0x3ba988c8	0.0051737763
52	0x3cc45bf2	0.023969624
53	0xbce466d5	-0.027881065
54	0xbd582976	-0.052773915
55	0x3cb40991	0.021977218
56	0xbb5db7b2	-0.0033831415
57	0xbd3c3620	-0.045950055
58	0x3d645f93	0.05575521
59	0xbcbffdbe	-0.023436423
60	0xbd55763e	-0.052114718
61	0xbc352e0c	-0.011058342
62	0x3c900361	0.017579736
63	0x3c7ebbaa	0.015547672
64	0xbcbc7689	-0.02300574
65	0xbccbad6f	-0.024862973
66	0xbd011a85	-0.03151943
67	0x3d15b6bf	0.036551233
68	0xbc8965d4	-0.016772188
69	0xbd1e3edc	-0.038634166
70	0x3d9c89ad	0.07643447
71	0x3c9dbbfe	0.01925468
72	0x3d085778	0.03328654
73	0xbb85591d	-0.004069461
74	0x3d0ca6e2	0.03433884
75	0x3c21de4a	0.009879658
76	0x3ca5f09f	0.020256339
77	0x3d08851f	0.03333008
78	0x3c2720f2	0.010200726
79	0xbc1b70db	-0.009487356
80	0x3c8f3593	0.0174816
81	0xbd0dec60	-0.034649253
82	0x3d3f0d1c	0.04664336
83	0xbc07a0eb	-0.008278112
84	0x3d66553a	0.056233622
85	0xbc2869bd	-0.010279116
86	0xbd754552	-0.059880562
87	0x3bbdca2b	0.0057919226
88	0xbc55d6c7	-0.013051695
89	0x3c717e43	0.014739576
90	0x3c379bd6	0.011206588
91	0x3b75a80e	0.0037484202
92	0xbd5c42bb	-0.053774577
93	0xbc866906	-0.016407501
94	0x3d244f99	0.040114973
95	0x3d194bd5	0.037425835
96	0x3c8b7f39	0.017028438
97	0x3988209e	0.00025964243
98	0x3cd0a4ef	0.025469271
99	0x3c994cbe	0.018713351
100	0xbb095bc3	-0.0020959235
101	0x3ca26120	0.019821703
102	0x3cf81d13	0.030287301
103	0x3cecf582	0.028925661
104	0xbcec804e	-0.028869774
105	0x3d09c234	0.033632472
106	0xb9b45f7f	-0.00034403426
107	0x3c6b1e3d	0.014350471
108	0x3c0736d4	0.008252818
109	0xbd2f70de	-0.042832248
110	0x3b606fda	0.0034246356
111	0xbc142803	-0.009042743
112	0xbd087c43	-0.03332163
113	0xbd58bc02	-0.052913673
114	0xbc5cf783	-0.013486746
115	0xbcaed9e6	-0.021344136
116	0x3ce5046d	0.027956212
117	0xbcfbf9e3	-0.030758804
118	0x3c9b9580	0.018992186
119	0x3c372929	0.011179247
120	0xbd462263	-0.048372637
121	0x3bdb1cd3	0.0066867857
122	0x3d629b80	0.055324078
123	0xbc0aeb84	-0.008479003
124	0x3cd4a298	0.025956437
125	0xbd431ab3	-0.047632884
126	0x3d58ec28	0.05295959
127	0x3d332ac7	0.043741968

fc2.weight f4 [10, 128]
0	0xbd8b7886	-0.068100974
1	0x3dc1bafb	0.09459492
2	0xbde6dd5d	-0.112726904
3	0xbdf7f7df	-0.121078245
4	0xbd1df8bc	-0.03856729
5	0xbd20ac61	-0.039226893
6	0x3da13d25	0.078729905
7	0xbd158c17	-0.036510553
8	0xbda05aa7	-0.078297906
9	0x3d090972	0.033456273
10	0xbdf2e1c0	-0.11859465
11	0xbe07456d	-0.13210078
12	0x3dae2caf	0.085046165
13	0x3ae5f33b	0.0017543802
14	0x3d9d3ea2	0.07677962
15	0xbd85e8c0	-0.06538534
16	0x3d78e2a3	0.060763013
17	0xbe120218	-0.14258611
18	0xbe510c82	-0.20414928
19	0x3d8ebdf5	0.06969825
20	0xbe10b069	-0.14129795
21	0xbc13541b	-0.00899222
22	0x3b9cf2be	0.0047896793
23	0x3d92aae6	0.071615025
24	0x3d8a4b27	0.067526154
25	0xbd3b7053	-0.045761418
26	0xbdd631f8	-0.104587495
27	0xbcf66eae	-0.030082073
28	0x3c7be471	0.015374289
29	0xbe1cf71c	-0.1532864
30	0xbdc4f717	-0.09617441
31	0x3b244bb6	0.0025069541
32	0x3ca16d8c	0.019705556
33	0xbc1eeaf0	-0.009699568
34	0xbd5d42ba	-0.054018714
35	0xbddc618e	-0.107607946
36	0x3c076c8e	0.008265628
37	0xbd8ef650	-0.06980574
38	0xbe2bb933	-0.16769867
39	0xbdb86f50	-0.09005606
40	0xbd13e9ef	-0.03611177
41	0x3d512720	0.051062703
42	0xbdb37b30	-0.087637305
43	0x3daaa48c	0.08332166
44	0xbd5ebdf9	-0.05438039
45	0x3da26015	0.079284824
46	0xbcfc3ef9	-0.030791746
47	0xbe0632d3	-0.13105325
48	0x3d8384b4	0.064217955
49	0x3d25f1cb	0.040513795
50	0x3d9a007c	0.07519624
51	0x3c69496e	0.014238698
52	0xbdabd41f	-0.08390068
53	0x3dd12124	0.10211399
54	0x3dd36e1b	0.10323735
55	0xbe33b93b	-0.17551129
56	0x3dccffaf	0.10009705
57	0xbb5cc4db	-0.003368667
58	0xbdca5569	-0.09879572
59	0xbdc9b930	-0.09849775
60	0x3d4c03ba	0.04980824
61	0xbdab2b72	-0.08357896
62	0xbdbba5da	-0.09162493
63	0x3dd22832	0.10261573
64	0xbd147a56	-0.03624948
65	0xbde4a3d3	-0.111640595
66	0xbe52ea03	-0.20597081
67	0x3de223ab	0.110419594
68	0x3deb293f	0.114824764
69	0x3d01650b	0.031590503
70	0xbe0da793	-0.13833456
71	0xbcfc1bfc	-0.030775063
72	0x3c7c316d	0.015392643
73	0xbdde3ea4	-0.108517915
74	0x3cb159dc	0.021649294
75	0x3dbd4100	0.092409134
76	0x3cf06718	0.029346034
77	0x3d854e8a	0.06509121
78	0x3d754ae6	0.05988588
79	0xbc82518d	-0.015908027
80	0x3da91cab	0.08257421
81	0x3d66988b	0.05629782
82	0xbd9e2b54	-0.07723108
83	0x3dc698e3	0.096971296
84	0xbcebb127	-0.028770996
85	0x3d9d6d6f	0.076868884
86	0xbdc76bcd	-0.09737358
87	0x3df0b6d5	0.117536224
88	0x3d62368d	0.055227805
89	0xbd8008a0	-0.06251645
90	0x3d535adf	0.051600333
91	0x3de0c471	0.10974968
92	0xbd96c56f	-0.07361876
93	0xbc6359d3	-0.013876396
94	0xbe0233a9	-0.1271502
95	0xbe1cb4da	-0.15303364
96	0x3dd4bc13	0.10387435
97	0xbd63e9f1	-0.055643026
98	0x3c9b1ab4	0.018933631
99	0xbe221e54	-0.15831882
100	0xbd2546ce	-0.040350728
101	0xbdd17e74	-0.10229197
102	0xbdc40b00	-0.095724106
103	0x3cde54d0	0.027140051
104	0xbd22c99b	-0.039743047
105	0xbe1ab439	-0.15107812
106	0xbdaaed34	-0.08346024
107	0xbcb6f6ea	-0.022334535
108	0x3d9d9c9f	0.07695889
109	0xba3f502e	-0.00072980195
110	0xbdd2a9f8	-0.10286325
111	0xbd52149c	-0.051289186
112	0x3dc592b4	0.09647122
113	0x3db35c44	0.08757833
114	0xbe19e98c	-0.15030497
115	0xbd5ffee1	-0.05468643
116	0xbe0d4b00	-0.13798141
117	0x3b0b404f	0.0021248048
118	0xbd94e2d8	-0.072698295
119	0x3d5bd840	0.05367303
120	0x3cd5e106	0.026108276
121	0x3db43168	0.08798486
122	0xbcf08fb5	-0.0293654
123	0xbe126b06	-0.14298639
124	0x3d83ebf9	0.064414926
125	0x3dc75c8f	0.09734451
126	0x3d5e44d3	0.054264855
127	0xbddcb203	-0.107761405
128	0xbda8fba4	-0.08251122
129	0xbe2c725b	-0.16840498
130	0x3c4d41c8	0.0125278905
131	0x3de5d8e0	0.11223006
132	0x3d8ba2b3	0.06818142
133	0xbd5236d4	-0.05132182
134	0xbdeefbb7	-0.116691045
135	0x3d4abb55	0.04949506
136	0xbdc39e40	-0.09551668
137	0x3dc6628e	0.096867666
138	0xbd92d038	-0.07168621
139	0x3bcead55	0.006307284
140	0x3d3f246f	0.046665605
141	0x3c190f4b	0.009342025
142	0x3d44e306	0.04806807
143	0xbe30a75c	-0.17251343
144	0x3d4defbc	0.050277457
145	0xbcdece9e	-0.027198132
146	0x3d4ab739	0.04949114
147	0xbdaecf91	-0.08535684
148	0xbdbbfad0	-0.09178698
149	0xbe1b6e78	-0.15178859
150	0xbda3ec7c	-0.0800409
151	0xbe29018b	-0.16504495
152	0xbda5ac04	-0.0808945
153	0xbddf44ec	-0.10901818
154	0xbd945c0b	-0.07244118
155	0x3bd8227c	0.0065959077
156	0x3cc34d36	0.023840528
157	0x3db1b0dd	0.08676312
158	0xbd2f6f64	-0.04283084
159	0x3d8531aa	0.06503613
160	0xbd871f93	-0.06597819
161	0x3c624dea	0.0138125215
162	0x3d9aa10f	0.07550251
163	0x3c39acdb	0.011332716
164	0x3da3a871	0.07991112
165	0xbd40dbca	-0.047084607
166	0xbcc3f0e6	-0.02391858
167	0xbd42114a	-0.04737977
168	0x3d2eafc9	0.04264811
169	0xbd328f50	-0.043593705
170	0xbd8705c4	-0.065928966
171	0xbe1b4d13	-0.1516612
172	0x3d46038a	0.04834322
173	0x3e03b01c	0.12860149
174	0xbd8928b4	-0.06697217
175	0x3d228d5b	0.03968559
176	0xbc1243db	-0.008927311
177	0xbdeab60b	-0.11460503
178	0x3dbd1a7e	0.092335686
179	0x3d81a208	0.06329733
180	0x3c35f89d	0.011106637
181	0x3c7d78eb	0.015470724
182	0x3b87dd91	0.004146286
183	0x3d4b711e	0.049668424
184	0xbde0c28c	-0.10974607
185	0xbbbd17de	-0.0057706675
186	0x3d13a68c	0.036047503
187	0x3dcedae6	0.10100345
188	0xbe147064	-0.14495999
189	0x3dcccbd0	0.09999812
190	0xbcd747e7	-0.026279403
191	0x3db94a25	0.09047345
192	0x3d6bc39c	0.057559595
193	0xbe1a2468	-0.1505295
194	0xbda3d8d6	-0.080003425
195	0xbdfe142e	-0.12406193
196	0xbd999d57	-0.07500713
197	0xbcda9f22	-0.026687209
198	0xbe09fa68	-0.13474429
199	0x3c17ffa3	0.009277257
200	0xbdbdeeee	-0.09274088
201	0xbda2a3cd	-0.07941399
202	0xbc73bd7a	-0.014876718
203	0x3dc61288	0.09671503
204	0xbda85fdc	-0.08221409
205	0xbdd02ec1	-0.101651676
206	0x3e1055a5	0.14095171
207	0xbd7fb792	-0.062430926
208	0xbdbcd0da	-0.09219523
209	0xbd8c5f62	-0.0685413
210	0x3df9f91f	0.12205719
211	0xbe1cb437	-0.15303122
212	0xbde64067	-0.112427525
213	0x3d765d7e	0.060147755
214	0xbc84e163	-0.016220754
215	0xbd71d053	-0.059036564
216	0x3e0cad8d	0.1373808
217	0xbdaafc32	-0.08348884
218	0x3cef3290	0.029198915
219	0x3d5563c7	0.05209711
220	0x3cb4ef00	0.02208662
221	0xbd084d39	-0.03327677
222	0x3da0f480	0.07859135
223	0xbdebc776	-0.115126535
224	0x3da10d6a	0.07863887
225	0x3c7d1f70	0.01544939
226	0xbe267295	-0.16254647
227	0x3d3768f4	0.044777825
228	0x3d4322f0	0.04764074
229	0x3d975c47	0.073906474
230	0x3d122079	0.0356755
231	0x3db9a209	0.09064109
232	0xbe979e9b	-0.29613194
233	0x3dc3cc23	0.0956042
234	0xbdcc6fa1	-0.09982229
235	0x3dd8c5d1	0.105846055
236	0xbe096143	-0.13416009
237	0xbd1ee2fa	-0.03879068
238	0xbdd3bdd1	-0.10338939
239	0xbd5a6deb	-0.053327482
240	0xbe14e743	-0.14541344
241	0x3da9778f	0.08274757
242	0x3dc93f0a	0.09826477
243	0xbd90aa4f	-0.07063734
244	0x3d26275e	0.040564887
245	0x3c2838be	0.010267435
246	0x3c9e419f	0.0193184
247	0x3d307d55	0.043088276
248	0xbd9613bf	-0.07327985
249	0xbd36784b	-0.044548314
250	0x3dbf5cc8	0.093438685
251	0x3d537679	0.051626656
252	0xbe549fe4	-0.20764118
253	0xbe05eb0e	-0.13077947
254	0x3d5db5b0	0.05412835
255	0x3d8f7a53	0.07005753

fc2.bias f4 [10]
0	0xbd06fab3	-0.03295393
1	0xbd8b776e	-0.06809889
2	0xbcc096cf	-0.023509411
3	0x3bd8f198	0.006620597
4	0xbc959f15	-0.018264333
5	0x3c43c057	0.011947713
6	0x3cd4e6a8	0.025988892
7	0xbb787568	-0.0037911776
8	0x3e3a3cfb	0.18187325
9	0x3c52a34c	0.012856316
