classification/digits/final_model.pth (torch, 527877 bytes, 10 tensors)

conv1.weight f4 [32, 1, 3, 3]
00000000: 1b6c cabd 5922 53be 410d 9bbe 19ff 74be
00000010: cf97 9cbe 8d62 d2be 72f0 01be 8a29 a6be
00000020: 770a 38be 6739 50bd 39d6 203e ea57 d8bd
00000030: b2ca 7d3e c956 5d3e 7b53 263e 8d82 89be
00000040: 17d4 32be dd71 043d adbe d4be 11be 41be
00000050: 7874 6e3e 55e1 903e fc3e 9b3e 12ad 8f3e
00000060: 7411 52be 32f0 483e fd72 913e d932 de3b
00000070: 3653 41be a3cd 8d3e aab0 12be 69c0 8d3d
00000080: d51e abbc bf1b a6bc af48 793e 5578 1cbc
00000090: e847 8b3e a05f 573e 0fae d03d 8e8c 65bd
000000a0: dc40 543d a5a8 223d fc7b 4a3d 68d4 eabc
000000b0: a88b e0be 544f 76be 615c a7be e06e 8abd
000000c0: d4ba 85be cbf8 5dbe d4c7 78be 8a92 3abe
000000d0: 2527 bbbe be64 8cbd 4347 bdbd 0498 a4be
000000e0: 6c7b b23d 78fa 40be a305 a1be 3be4 20be
000000f0: 67d5 033d c547 073e 6dc1 5cbe eaf6 92bd
00000100: f6a1 ab3e 3893 93be 8ab9 72b9 75ba 073d
00000110: d69c 8e3e 1208 383e 0dc2 6dbe 03d4 243e
00000120: 3862 1ebe 7bb0 923e ab4b 193d 9808 02be
00000130: 48a9 c13b d502 c33e 108d 00be f980 c8be
00000140: 36df 25be 4da9 26be c1aa 35be 8ba6 9f3d
00000150: 7806 dcbe 8f11 1b3e 02ba 5f3d 0562 8c3e
00000160: eef5 993e 7450 023e 37f7 023f 8671 3abb
00000170: fdf9 99be 9018 353e a85f c8be 13cc cfbe
00000180: f901 2f3d a210 f0be 0e53 d03e bcb0 1bbe
00000190: 5406 b4be d4a6 0cbf 6363 d7be 3726 cebe
000001a0: ca92 483d 035d f2be f45f 553e 3cfb 1d3f
000001b0: 6624 26be 1b38 a13e 0c9b ae3e 37ba 7bbe
000001c0: 325d 64be 3007 243e 1a29 68bd bb23 923e
000001d0: 9c92 a73e e300 d3bc 7afc 8c3e 0b99 ac3d
000001e0: 1f66 6ebe 5e0c 5f3e bab5 a03e fd64 ebbe
000001f0: 280c aabe 874d 31be d8e6 8f3e b5ef bebe
00000200: 9583 a1be 3eb0 b63e 7ea6 a03e 73e4 273d
00000210: 9fab 16be 08a4 d9bc 6415 453e a664 733e
00000220: 73dd d13d a14d acbe 55ad aabd 7c47 853e
00000230: d498 98bd 4476 153e 7299 9d3e 142c 31be
00000240: 1d3e a53e 7729 a33e dbf7 513e c7c1 f9bd
00000250: f376 4fbe 8ef7 babe ed0f 1f3e 60ad e1be
00000260: ad67 8e3d e251 7c3d c30a 493e cabe 943d
00000270: 4abc 933e 0caa 7c3e 281f 86be a701 5c3e
00000280: 6ed9 27be b1ee 78be 9ca7 70be c161 5ebe
00000290: 921c 9b3e 1d08 fc3a 8309 d03c 04b9 a53e
000002a0: d083 373e e044 4b3e f434 03bf 729b 333e
000002b0: da3b 123e 997f 973e eecf 02be 6ee4 1b3d
000002c0: 811b 403d ad87 edbd 3f12 82be 8028 90be
000002d0: 706e ff3e 4168 b23e ccdc 43be 3e78 70be
000002e0: 1a41 73be 0607 02bf 5b16 123c f4b9 b0be
000002f0: 242b 6ebe 8953 6f3e c20e d73e 9ba6 593e
00000300: 078a 8abe 34ab f2be 196a b0be 88cd b53d
00000310: 3016 953c 9e6d 583e d6ca 42be 0cb7 bebe
00000320: 6b56 683e c0ad 68be 6a75 503e bad4 973e
00000330: 3956 4c3d c520 163e c116 a63d 0a5d b33d
00000340: c570 e63c 38c9 123e b9ea b73d f4a7 993e
00000350: 7138 99bd cabf 80bd 4bef 3a3e 6374 28bc
00000360: ff87 8fbe ca56 6cbe b838 bb3e 63a3 083e
00000370: 938e 673d 2cfd b53e 7f73 543e e396 01bf
00000380: 9564 95bd fe55 aebe 47da 773e a483 8e3e
00000390: 1ba4 483e d0ec 4f3e eeed ad3b 0d6f 093e
000003a0: 8748 91be 637e a03e 9fbf 74be f201 54be
000003b0: 8b0a a03e db3b c83d 8782 f73d a43a 983d
000003c0: cfee c6be 736d 283e 05f4 173e 1d44 2cbe
000003d0: 1ef5 19bf 86e0 59bd 3d03 8a3e 378b aebd
000003e0: 1c32 83be 4c02 033f e61b d8bb 4b29 d53e
000003f0: 2f52 e83c e3ff 513e 8a67 f43d 14c7 de3d
-0.09883901 -0.20618571 -0.3028355 -0.23925437 -0.3058457 -0.41090813 -0.12689379 -0.32453567
-0.17972742 -0.050835993 0.1570672 -0.10563643 0.24784353 0.21615137 0.16242783 -0.26857415
-0.17463718 0.03233515 -0.41551724 -0.18920161 0.23286617 0.28296915 0.3032149 0.2806173
-0.2051447 0.19622877 0.28408042 0.006780964 -0.18879399 0.2769595 -0.14325204 0.06921465
-0.020888725 -0.020276902 0.24344133 -0.009550174 0.27203298 0.21032572 0.10189449 -0.056042247
0.051819667 0.039711613 0.049434647 -0.028665736 -0.4385655 -0.24053699 -0.32687667 -0.06759429
-0.261191 -0.21676938 -0.24294978 -0.18219963 -0.36553302 -0.068551525 -0.09242108 -0.3214723
0.08714947 -0.18845546 -0.31449613 -0.15712063 0.03218594 0.13210972 -0.21558161 -0.07176001
0.33522004 -0.28823256 -0.00023148037 0.033136804 0.2785403 0.17971829 -0.23218556 0.16096501
-0.15467155 0.2865027 0.03742568 -0.12698591 0.0059100725 0.38088098 -0.12553811 -0.39160898
-0.1619843 -0.1627552 -0.17740919 0.077954374 -0.42973685 0.15143417 0.05462075 0.27418533
0.30070442 0.12726003 0.5115847 -0.0028449013 -0.30073538 0.17685151 -0.3913548 -0.40585384
0.04272649 -0.4688769 0.40688366 -0.15204138 -0.35161078 -0.5494206 -0.42068014 -0.4026353
0.048968114 -0.47336587 0.20837384 0.6171148 -0.16224822 0.31488118 0.34102666 -0.24582754
-0.22301176 0.16018367 -0.056679823 0.28542885 0.32729042 -0.025757259 0.27536374 0.08427628
-0.23281144 0.21782061 0.31388646 -0.45975485 -0.332124 -0.1731473 0.28105807 -0.37292257
-0.31545702 0.35681337 0.31377023 0.04098935 -0.14713906 -0.026567474 0.19246441 0.23768863
0.10247316 -0.33652976 -0.08333842 0.260311 -0.07451025 0.14595896 0.30781132 -0.1730197
0.3227395 0.31867573 0.20504706 -0.12195163 -0.2026022 -0.36516994 0.15533419 -0.44077587
0.06953368 0.061601527 0.19633012 0.072629526 0.2885459 0.24674243 -0.26195645 0.21485005
-0.16391537 -0.24309804 -0.23501438 -0.21716978 0.30295235 0.0019228492 0.02539516 0.32367718
0.17921376 0.19850492 -0.51252675 0.17539766 0.14280644 0.29589537 -0.12774631 0.038059644
0.04690123 -0.11598144 -0.25404546 -0.281559 0.49888945 0.34845164 -0.19127196 -0.23483369
-0.23755303 -0.50791967 0.008916463 -0.3451687 -0.23258644 0.2337171 0.42003447 0.21254961
-0.27058432 -0.47396243 -0.34455946 0.088770926 0.018199056 0.21135566 -0.19022688 -0.3724903
0.22689216 -0.2272253 0.2035729 0.29654485 0.049886916 0.14660938 0.08109809 0.0875798
0.028129945 0.14334571 0.08980317 0.3001095 -0.074814685 -0.06286581 0.18255346 -0.010281655
-0.28033444 -0.23079982 0.3656671 0.13343577 0.056532454 0.35544717 0.20747183 -0.5062086
-0.07294575 -0.34049982 0.2420436 0.2783481 0.19593851 0.2030518 0.0053079044 0.13421269
-0.28375646 0.31346425 -0.23901223 -0.20703867 0.31258044 0.097770415 0.12085443 0.0743306
-0.38854071 0.16448002 0.1483918 -0.16822858 -0.60139644 -0.053192638 0.26955596 -0.08522647
-0.25624168 0.5117538 -0.0065951226 0.41633067 0.0283595 0.2050777 0.11933811 0.10877815

conv1.bias f4 [32]
00000000: d29c bfbb 4207 db3d d8d3 8dbe f531 05bd
00000010: 71f9 91bd 67b9 183e d5cc 4a3d a1bb 143e
00000020: 1405 e93d fa2e 0f3d 9103 49be ff18 11bd
00000030: 73fe 5a3d 5bef 403e faa1 c33d c3b0 96be
00000040: 5d8d 473e 662b 71be 24e3 61be 2b96 fc3d
00000050: 07bd 453e 0572 64be 2c4b 7dbd b03e c93d
00000060: 2b29 56be 366e 19be 23c2 373d 3997 abbb
00000070: 88f9 b33d 4bef 3fbc 60ee 69bd 3c15 b7be
-0.005847552 0.10694744 -0.27700686 -0.032518346 -0.07127655 0.14914475 0.04951175 0.145247
0.11377922 0.03495691 -0.19630267 -0.03542423 0.053465318 0.18841307 0.09552379 -0.29431733
0.1948752 -0.23551711 -0.22059304 0.1233333 0.1931039 -0.2230912 -0.061839268 0.0982641
-0.20914142 -0.14983448 0.044862878 -0.005236533 0.08787829 -0.011714767 -0.057112098 -0.35758388

conv2.weight f4 [64, 32, 3, 3]
00000000: 6f90 6c3d e30b 1bbe 8ded c33d 7e3e 713d
00000010: abda 72be 8c54 fabd 5d49 683d 2742 cfbc
00000020: 0935 d3bd 2170 d4bc aa31 323d 9ef7 03bd
00000030: cacc 97bd 6827 a63d 180f 2d3d a55e 90bd
00000040: 0d30 d9b9 be17 9b3d a01c 55bd 62c7 ba3d
00000050: 65f3 32be f064 a8bd a7ee 06bb af44 f83c
00000060: ed35 46bb 84b9 46bc 6525 20bd 2450 bdbd
00000070: f6af 9d3d a1ef 87bd 2496 71bd 75b8 c0bc
00000080: c1f9 98bd 36e7 f5bc 333b 233d db4d 9ebc
00000090: 2866 12bd a5a5 cc3c ccab 09bd f56a 86bd
000000a0: 288a 133d 2785 c2bc a893 23be ec20 84bd
000000b0: a00d 843d c3d9 bd3c 3de9 99bd 50d1 ce3c
000000c0: 9c18 973d 89b2 3bbe 0c47 12be d924 233d
000000d0: e6da 243d 616b 3dbd 2b8d 17bd 4c56 24bd
000000e0: 64b6 18bd 8657 663d 6d0b 0dbe e658 00bd
000000f0: 0b07 e73d 4723 be3d 8cd0 e5bd ee1b f23c
00000100: 45da a63c 74b2 2fbd fab4 cfbc 60be e13d
00000110: b4fd a83c 8760 a3bd 4922 1f3d 0da5 323d
00000120: 6ec0 c63d 4e8e 42bd aac5 fbbc 170b 5f3d
00000130: 19bd 363e c920 043d f2ab cfbc 8908 9b3d
00000140: ae50 1d3e 7035 b1bd 1099 f83c 73ec acbd
00000150: 0da1 8ebd 1831 5a3d 4d7d 01bd 43ba 37bb
00000160: 7cbc c93d e3ab 2fbc bd63 ea3d bd1a d03b
00000170: df02 973e bf06 eb3d 03c0 52be e5be b93d
00000180: 78d2 803c 528b 88be 29c7 3ebd 79e8 ecbd
00000190: 4cee 21be 61e7 2ebe 8657 a7bd ea7b 5fbe
000001a0: 8da0 09be 32f7 8bbc 09d5 02be cc0b 7cbe
000001b0: c6e1 c7bc 4162 e33d 5dc9 24be d686 18bc
000001c0: 1371 b03d bf92 2bbd f158 913b ae50 953d
000001d0: bb0c 613d adc0 ea3c 5642 873d 88e8 22bd
000001e0: 429a 6f3d de40 303e c940 1b3d 90b5 15bd
000001f0: 2110 6e3d a5f6 7a3d 1341 07bd 2848 8b3d
00000200: 496c 45bd d188 f9bd 1468 013e 5d4d 3e3e
00000210: bfd5 d3bd edca abbd 152e bb3d 87e1 8c3c
00000220: 0bf0 e13d 0f15 573d 855f 01be 79ec 113e
00000230: e91c d63d 24f4 25bd 24ab 043d c56b f63d
00000240: ffd2 f43c abe9 d2bd 00f0 7c3e 7934 78bd
00000250: 4c93 93bd f602 66bd 4c92 c5bd 2465 0abe
00000260: b393 bd3d 69fa 4d3d f845 9c3c ef66 553d
00000270: c627 f3bd 1c60 c3bd 70f4 153b cbff 35be
00000280: bff5 b8bd 777c 763c dd17 1ebd aff7 22bd
00000290: e4e2 41bb 4f40 1c3d 5e5e 62bd 8c75 c7bd
000002a0: a0a3 37bd 86d8 6f3d b135 1b3d f109 42bd
000002b0: 7dfa 6dbe b8ab 81bd 6ccf 853d 5758 bc3c
000002c0: b931 1ebe b143 e8bd 4875 59bd ebf8 ef3d
000002d0: 0817 423d d38e 2abe e80e 033e 912d 393d
000002e0: d4dc a7be 9118 b2bd 42f1 c7bb 349c 94be
000002f0: 23c2 24bc 0422 533d 5f54 4bbe d81c d83c
00000300: bb6d 8dbd b9a4 4dbe fb64 a2bd e892 b0bd
00000310: 9de0 b3bc 43f0 ba3d b504 643c 24ba e4bc
00000320: d135 03be 6bbc 4fbd f7e2 a83d a41b 8fbc
00000330: 9041 c0bd 8ff4 7f3d a956 69bd a01e 83bd
00000340: f419 b13d 8f40 d6bd 6685 d3bd 3846 a5bc
00000350: e657 b9bc d9cb 9fbd 4bd5 2e3d 5569 143c
00000360: 120f cd3d 64fe 643d 7949 d1bd 3a97 493c
00000370: d29d 263e 1d7c a7bd 9345 42bd 961b f73d
00000380: 3475 9fbc 8952 57bb 2d1e f53c 806e ecbd
00000390: b7ef b1bd 6303 763d 92df bbbd 3be9 b0bd
000003a0: 03ec a43d 54f4 533d b059 1b3d 6458 8a3d
000003b0: bca9 e0bd 0d48 1bbd 21ea 1a3d 58df 8cbd
000003c0: b11b a5bd 15ae 013e b297 c33b f470 d2bd
000003d0: 3ddd b2bd 7025 aa3d c140 44bc 851a 55bd
000003e0: 1543 933e c414 593e d0f3 993d e579 623c
000003f0: ff1e 35bd 554b 823d 562f 0fbe d7d5 c8bc
0.05775493 -0.15141253 0.095667936 0.058897488 -0.23716228 -0.12223157 0.05671059 -0.025300099
-0.1031285 -0.025932373 0.043504395 -0.032218568 -0.07412107 0.08112985 0.042250723 -0.07049302
-0.00041425266 0.07572888 -0.052029252 0.091200605 -0.1747566 -0.08222377 -0.0020589025 0.030306188
-0.0030244545 -0.012129191 -0.039098162 -0.09243801 0.076995775 -0.066375025 -0.058981076 -0.023525456
-0.07469512 -0.030017477 0.03985138 -0.019324234 -0.035741955 0.02498133 -0.033611104 -0.06563369
0.036020428 -0.023745133 -0.15974295 -0.06451592 0.06447911 0.023175126 -0.0751519 0.025246292
0.07377741 -0.18329825 -0.14284915 0.039830063 0.04024782 -0.046244983 -0.036999863 -0.04012136
-0.037283316 0.056235813 -0.1377389 -0.03133478 0.1128064 0.09284072 -0.11221418 0.029554334
0.02036775 -0.042894796 -0.025354851 0.11022639 0.020628788 -0.079773955 0.038851056 0.043614436
0.09704672 -0.047498994 -0.030733902 0.054453935 0.17845573 0.03225783 -0.025350545 0.07569987
0.15362808 -0.086527705 0.030346423 -0.084435366 -0.06964312 0.053269476 -0.031613637 -0.0028034605
0.09850404 -0.010722133 0.11444805 0.0063508437 0.29494378 0.11475896 -0.20581059 0.09069613
0.01572536 -0.26668793 -0.046576653 -0.11567778 -0.1581356 -0.17080452 -0.08170991 -0.21824613
-0.13440152 -0.017085645 -0.12776579 -0.24613875 -0.02439965 0.11102725 -0.16092439 -0.009309491
0.08615317 -0.041887995 0.0044356515 0.07290779 0.05494378 0.028656328 0.066044495 -0.03977254
0.05849672 0.17212245 0.03790358 -0.036550105 0.05812085 0.061270375 -0.033021044 0.06800872
-0.048198972 -0.12184299 0.12637359 0.18584199 -0.10343503 -0.083883144 0.09139649 0.017197384
0.11032113 0.052510317 -0.12634094 0.14250363 0.10454733 -0.040516034 0.032389775 0.12032274
0.029885767 -0.10298475 0.24700928 -0.060596917 -0.07205829 -0.056155168 -0.096470445 -0.13515145
0.09256687 0.050287638 0.019076332 0.05210012 -0.118728206 -0.09539816 0.0022881292 -0.17773359
-0.09031247 0.015044323 -0.038596977 -0.03978699 -0.00295847 0.038147267 -0.055265777 -0.09739217
-0.04483378 0.058556102 0.037893 -0.047372762 -0.23240085 -0.06331581 0.06533703 0.022991342
-0.15448655 -0.11341036 -0.053090364 0.11717399 0.047385246 -0.16656046 0.12798655 0.04520947
-0.32785666 -0.08696092 -0.006101758 -0.29025424 -0.010056051 0.05154611 -0.19856404 0.026380941
-0.06905695 -0.20082368 -0.07929417 -0.0862177 -0.02195769 0.091278575 0.013917138 -0.02792079
-0.12813498 -0.0507168 0.08246415 -0.017469235 -0.09387505 0.06248909 -0.05696741 -0.06402326
0.08647528 -0.10461532 -0.10328178 -0.020175084 -0.022624921 -0.07802553 0.04268388 0.009058316
0.1001264 0.05590667 -0.10219092 0.012304122 0.16271141 -0.081779696 -0.047429632 0.120658085
-0.019465066 -0.0032855591 0.029921615 -0.11544514 -0.086883 0.060061824 -0.09173502 -0.08638235
0.08052828 0.05174668 0.03792733 0.067551404 -0.10969874 -0.03791051 0.03782094 -0.06878537
-0.08061922 0.12664063 0.005969011 -0.1027545 -0.08733604 0.08307922 -0.011978329 -0.052027244
0.28762117 0.21199328 0.07517207 0.013823007 -0.044219013 0.06362025 -0.13982901 -0.02451603

conv2.bias f4 [64]
00000000: 59ad 0cbd 4086 3abd 5730 a2bc 21e8 07bc
00000010: 0bc1 11bd d3d8 3e3d 5aa6 353d 2e58 bf3c
00000020: a3f0 69bb fa7f d73c 6720 f23b 27cd db3c
00000030: 5610 c7bc c139 433d 58b1 75bd dceb 83bd
00000040: ff6f c1bd b219 b63c 3558 47bb 5016 82bd
00000050: ff10 b33c be12 c6bc 6cc3 113d 1a7d 943d
00000060: 3878 e5bc 3ccd 61bc 18d3 ad3b ce12 7fbc
00000070: 1f7b 973d a546 65bd ef1f 073d 443d 1dbc
00000080: 2d7e 0ebd e78c f93c 89e4 32bd 3159 6c3c
00000090: 3cd3 6abd 4ed4 04bd 5715 4ebd 690f 4e3d
000000a0: 8beb 00bd 1891 b8ba e529 983c 984c 5cbd
000000b0: 3d0f 8f3c 7226 21bd 49ae 50bb a27e 08bd
000000c0: 492a 81bd 60f5 183d 1284 9a3b 9637 9fbd
000000d0: a5cb 4fbd 9afc 683d 5bdd f7bc 0a23 773d
000000e0: f311 e73c 8e7c a33c 67ff 973c 3d79 6e3d
000000f0: 63e1 c7bc 07a6 31bd 7d55 7a3c e114 18bd
-0.034345005 -0.045538187 -0.01979844 -0.00829509 -0.03558449 0.0465935 0.0443481 0.023357477
-0.003569641 0.026306141 0.0073891166 0.026831223 -0.024299782 0.0476625 -0.05998358 -0.06441471
-0.0944519 0.02222905 -0.0030417566 -0.06351912 0.02185869 -0.024178859 0.03558676 0.07250424
-0.028011426 -0.013781842 0.0053047054 -0.015568448 0.0739653 -0.055975575 0.03298944 -0.009597126
-0.0347883 0.030462695 -0.04367498 0.014425562 -0.057330355 -0.032429032 -0.05031332 0.050307665
-0.03147463 -0.0014081327 0.018574664 -0.053783983 0.01746332 -0.039343305 -0.0031842163 -0.03332389
-0.063068934 0.037343383 0.004715451 -0.07774274 -0.05073132 0.056881525 -0.030256918 0.06033615
0.028206801 0.019956853 0.018554403 0.05822109 -0.024399465 -0.043371227 0.015279171 -0.037129287

conv3.weight f4 [64, 64, 3, 3]
00000000: fc9c 613d 7e13 4b3d b8ea 123d 9b9e 5c3d
00000010: 353a 06bd d4aa be3d e815 363d ca1b 67bd
00000020: caee 403d 6c4f 3b3c 87e6 403d 4941 bb3d
00000030: a792 06bd 1223 86bb 0276 253e 6068 da3c
00000040: 5431 1cbb cb27 a1bc 5f21 24bd bd22 eabd
00000050: 81e5 05be d0ce 8cbc 7f0f b1bd b633 c23c
00000060: 02c0 ee3d 87a8 c9bd d328 613d 8acd ca3c
00000070: 50db 9a3d 606f 013d 71ac 01bd a84b 88bd
00000080: 37cf d53c 067a 02be 717e bbbb f399 5a3d
00000090: 510b aabd 1fde 5cbd d9a9 583c 5cef d7bb
000000a0: 9f00 2bbd d686 c0bb 0438 903c 51fa 89bd
000000b0: e40f 803c 9c6f d63b f869 ed3c 43dc dc3c
000000c0: 6f44 2cbd 5412 763c 75a9 a13d bfae 99bd
000000d0: ebad 3739 e0f1 8e3d ddd6 86bd d19c 32bd
000000e0: 3439 033d 8411 9e3c 47b6 533c 3a12 c1bd
000000f0: 1bd8 ce3c 9fee a13c 8e27 793b 905f 9cbd
00000100: 1b9d 003c 332d 8dba 7c33 1c3d 2710 e1bd
00000110: 6e37 a63d 4e59 943d ab69 52bd f746 c73d
00000120: 710d a23d 40bf ad3d 297d cbbc b3fa d53c
00000130: 3b6b 02bd 789b c0bd d64e 83bd fab3 7abb
00000140: 8d90 7dbd cecf 1abe 8abe 5ebd c07b a8bd
00000150: 2762 c0bc 79b0 d0bd 08d2 853c e9a8 743d
00000160: 2605 e3bc 1eca b53c ae00 ebbd 555d 02be
00000170: f61e adbd 662a bbbc ee5c 443d ebfe 8abd
00000180: 9d7e 653d 9ed0 6f3d d7e3 22bc fdf3 f03c
00000190: 2170 86bd 4511 dd3c 1136 493c 12c3 8abc
000001a0: c05a 1e3c 977b 04bb 5732 193d c3b3 683d
000001b0: 3db6 00be 4fe4 00bb bbb0 ccbd e4cb 1bbd
000001c0: 9971 393d 82fc edbd ba06 7b3b 9c0e 283c
000001d0: bbe5 383d 39a6 153d 7d7c ea3a 3bbe 50bc
000001e0: 3196 ccbc df6e 97bd 174b ff3c 185f 43bd
000001f0: bc57 b53c a0a6 533d 5a68 48be a5e8 93bd
00000200: 6266 86bd 5829 a5bb 8050 8b3d 2ef1 ba3d
00000210: 50c5 c8bc d4c1 ddbc f255 90bc 88fd e2bd
00000220: 4879 02bd d70a 983d 326e 5abb 318f 4fbd
00000230: 2e00 373d 9fdc 1c3d 5537 b03c adc9 2e3d
00000240: 9f5a c4bd 37e4 093c cb46 7abd 07fd a93d
00000250: 1f78 8b3d d94a 8d3d 2187 693c 7398 18bc
00000260: 5572 5b3d fa51 d3bc fa2f e7bd 8605 51bd
00000270: 7613 1f3c a43a afbd e797 7e3d 7a9f 8c3d
00000280: edc9 dbbd 0e05 903c 0936 febd cdf0 18bd
00000290: 54bc 49bd e096 a63b ac23 1bbe 8b8f 143d
000002a0: e511 193e 1d5c 89bd a601 213d 3874 533d
000002b0: aa8d 1b3d 71ef 11be 8193 4a3d e68d c0bc
000002c0: c8e5 69bb ea8d 89bc a050 0ebd 6c30 823c
000002d0: 9a10 3c3d c2fe de3d 5b2a 27bd db11 26bd
000002e0: 309d 9a3d 1266 013c 4e97 903d d1de a6bc
000002f0: 59ae 6fbd 0a28 55bd 5327 3f3c 25ba a23d
00000300: d26e 39bd aa2c 8a3d e7a6 543d 1ca8 1a3c
00000310: af11 fe3a 71fe b13a a539 68bd f519 d4bc
00000320: d27d 1fbc e6b2 933d cdcb 793c 1b2b 1b3e
00000330: b389 f73c 4d43 83bd d72d 303c 8983 a13c
00000340: c12d 47bd 6a60 163c 2388 afbc 799c 1bbd
00000350: f4ee 213d 0880 ad3c 0e44 753c 5d4c a53d
00000360: 7f16 7abc 57dd b3bc 10ff 16bd 188a 62bd
00000370: a1f2 5e3c 748e efbb e1ef d13b c253 91bb
00000380: 5c3d 66bc d506 b13d dfa0 933d 9b5f 613a
00000390: 0bf5 67bd 534e b2bc 7c4c 8cbd e28c dbbc
000003a0: 890b 92bc 768f 8ebd 358d 2b3d 43fb 573c
000003b0: f22f 4fbd a011 24bd 7b02 01be 4f39 813b
000003c0: cd0c acbd dcfa a13b 7e6f 973d 5632 2fbd
000003d0: dadc b03c 92da 4cbd 180c a43a 2e26 81bd
000003e0: ae7e 80bd 647e 06bc 56d3 66bc a1f8 21bd
000003f0: 3457 813b bc56 1e3a f5c2 26bc d682 523c
0.055081353 0.049579136 0.035868376 0.053862195 -0.032770354 0.09309927 0.044454485 -0.056422986
0.047102727 0.01143251 0.047094848 0.091433115 -0.032854702 -0.004093536 0.16158298 0.026661098
-0.0023833113 -0.019672295 -0.040070888 -0.11432407 -0.1307583 -0.01718846 -0.08645534 0.023706298
0.11657716 -0.09846597 0.054970574 0.024756212 0.07561362 0.031600356 -0.031658594 -0.06655055
0.026099784 -0.12741861 -0.00572186 0.053369474 -0.0830294 -0.05392277 0.013224089 -0.006589813
-0.04174864 -0.0058754487 0.017604835 -0.06737197 0.015632577 0.0065440666 0.028981194 0.026960498
-0.04205745 0.015019018 0.078936495 -0.07504033 0.0001751703 0.06979728 -0.06583951 -0.043606583
0.032036975 0.019295461 0.012921876 -0.094273046 0.025249531 0.019767104 0.0038017961 -0.076354146
0.007849957 -0.0010770917 0.038135037 -0.10989409 0.08116041 0.07243596 -0.051370304 0.09730332
0.0791272 0.08483744 -0.024839954 0.02612052 -0.031840544 -0.09404653 -0.06411521 -0.0038254247
-0.061905432 -0.15118334 -0.05438093 -0.082267284 -0.023484303 -0.101899095 0.016335502 0.059731398
-0.027712416 0.022191104 -0.11474739 -0.12730916 -0.08453171 -0.022847366 0.047940187 -0.06786903
0.05602895 0.058548562 -0.009942017 0.029413218 -0.06564356 0.026985774 0.012280957 -0.01693872
0.009665191 -0.0020215267 0.037401523 0.05681206 -0.12569518 -0.0019667333 -0.09994646 -0.038036242
0.04527435 -0.11620428 0.003830357 0.010257389 0.045140963 0.036535475 0.0017889884 -0.012740667
-0.02497396 -0.07394194 0.031163735 -0.04769811 0.022136562 0.051672578 -0.19571057 -0.07222108
-0.06562497 -0.005040329 0.068024635 0.091280326 -0.024508148 -0.027069964 -0.017619107 -0.110835135
-0.031853944 0.074239425 -0.0033329842 -0.050673667 0.044677906 0.03829634 0.02151076 0.0426728
-0.09587597 0.008416227 -0.06110267 0.08300214 0.06810021 0.06899042 0.014253409 -0.0093136905
0.053575832 -0.025795925 -0.11288448 -0.05103066 0.00970923 -0.08556107 0.062156584 0.06866355
-0.10731874 0.017580535 -0.1241265 -0.03733902 -0.04925187 0.0050839037 -0.15150326 0.036269706
0.14948232 -0.06707022 0.039308213 0.051624507 0.0379769 -0.14251496 0.049457077 -0.023505162
-0.0035689939 -0.016791303 -0.03474486 0.01589223 0.04591427 0.10888435 -0.040811878 -0.040544372
0.075495124 0.007897871 0.07060109 -0.020369919 -0.05851588 -0.052040137 0.0116670905 0.079456605
-0.045271702 0.067468 0.051916983 0.009439494 0.0019383932 0.0013579858 -0.0566956 -0.025891284
-0.009734588 0.072118565 0.015246344 0.15153162 0.030217027 -0.06409321 0.010753117 0.019716041
-0.04862762 0.00917826 -0.02142722 -0.03799102 0.039534524 0.021179214 0.014969839 0.08071206
-0.015264153 -0.021956129 -0.03686434 -0.055307478 0.013607652 -0.007310683 0.0064067696 -0.0044350335
-0.014052715 0.08643881 0.07208418 0.0008597315 -0.056630176 -0.021765864 -0.06850526 -0.026800577
-0.017827766 -0.06960957 0.041882712 0.013182464 -0.050582834 -0.04005587 -0.12598602 0.0039435993
-0.08400879 0.004943235 0.07394312 -0.042772613 0.021589685 -0.050013132 0.0012515811 -0.0630611
-0.06274162 -0.008208845 -0.014088472 -0.03954375 0.003947163 0.0006040146 -0.010178317 0.0128485765

conv3.bias f4 [64]
00000000: f5b8 edbc 4c97 7dba ffe8 eebc 0e75 98bd
00000010: d680 73bc ddd0 59bd 5e01 0bbd f4c8 95bb
00000020: b956 33bb e7a5 a23b 2b79 b1bc d81f 0cbd
00000030: ca8d 2ebd e6a0 b6bc 49fd 2dbd 5f9d acbd
00000040: f034 dabd b6af 36bd d7d7 f8bc bedf 36bd
00000050: 43a4 4bbd abeb 57bd a97d 24bd dcb7 2cbd
00000060: 7658 5fbc 5665 85bc 46bc 8bbd 34c8 03bd
00000070: 51ca 7cbc 3ab1 04bd a5c3 fa3c 5ec6 d73c
00000080: 09e2 673c c3bc 1bbc 6f8c 8fbd b27f 35bd
00000090: 4fc7 d5bb 7f1c c2bc 0292 66bd 64e4 49bd
000000a0: 26db 4cbd ac75 5abd 2adc bbbd 6325 a2bd
000000b0: 1d92 2dbd 2225 8039 25dd 903c fac0 483c
000000c0: 8c13 3dbd 51b9 323d 5872 10bc 210e 06bd
000000d0: 6230 86bd 0686 b3bc 2f27 49bd 6955 9ebd
000000e0: 5025 aebd 15da 1cbc 8561 0dbd e053 7abd
000000f0: a1be 59bb 496d c2bc b5f0 96bd d0f8 e93c
-0.029018858 -0.0009673729 -0.029163836 -0.074442014 -0.01486226 -0.053177703 -0.03393685 -0.0045710746
-0.0027364923 0.0049636248 -0.021664223 -0.034210056 -0.04261569 -0.02229352 -0.04247788 -0.08428454
-0.10654628 -0.044601165 -0.030376358 -0.04464697 -0.0497172 -0.052714985 -0.0401589 -0.04216753
-0.013631931 -0.016283672 -0.0682302 -0.03217335 -0.015429095 -0.03239558 0.030610869 0.026339706
0.014153012 -0.0095054535 -0.070092075 -0.044311233 -0.0065240036 -0.023695229 -0.056291588 -0.049290076
-0.050013684 -0.053334877 -0.09172852 -0.07917287 -0.042375673 0.0002444173 0.017683575 0.01225304
-0.04616122 0.043633763 -0.008816324 -0.032728318 -0.06552197 -0.021914493 -0.049109634 -0.077311344
-0.085032105 -0.009573479 -0.03451683 -0.061115146 -0.0033225196 -0.023733752 -0.0737013 0.028561026

fc1.weight f4 [128, 576]
00000000: 0017 64bd edc4 dfbc 8aec 163e abc5 26bd
00000010: 886f 7b3b ef93 0fbd 4fb2 3e3c c025 ec3c
00000020: 76c6 f13c a43f a8bc 658a 9cbd 8050 f7bd
00000030: c8b3 0d3d fc51 d6bc e663 663d 80cb 86bd
00000040: f2f1 7ebd 696c a13b ceb6 213c f96c cf3c
00000050: cda4 73bc 1205 73bd 1894 c5bc 1e7a 95bd
00000060: e4fc 473c 6c81 b63c 80c4 fd3d 3543 823d
00000070: 8940 1b3d a1f8 81bc 31c4 1f3d c437 9f3c
00000080: ccd9 b63c f3a1 253c f8f2 96bb 2251 84bd
00000090: 1898 29bd 04ab 87bd 3a56 d13d c2a0 c03b
000000a0: aa8d 63bb 84db cebb 2b49 8fbd 29bb 513c
000000b0: c0c3 81bc 5e18 1b3d 95b0 f5bb b6ec 8cbd
000000c0: 4974 903d 77cd 0ebd 41ba 4cbd d16a 34bd
000000d0: e323 51bd 77ae 9bbd aa70 0cbc a8fe c5bc
000000e0: b34e 6ebd 7666 c43c 06e3 b7bd 29f4 2bbc
000000f0: d45c 403d 067a 2ebe c5f1 f8bc d137 50bc
00000100: 5089 2abb 89a7 18bc 40c4 273d 820a bf3c
00000110: 1aa2 05be 034a 4abd 01f1 ba3c 6637 a8bd
00000120: a988 0e3c ce68 74bd 3e7d 173c fb63 653d
00000130: bacc ac3d 29b0 14bc 44d4 b5bc ea43 dd3c
00000140: cead 903d a6d7 d2bc 8e27 b0bd 292b 953c
00000150: edba f93c 0006 cebd fc69 b13c b2f8 8abc
00000160: c7cf 933d c3ab b13b 32ca c23c 7ffe ff3c
00000170: 9ce7 87bd 26a0 9f3d 15f8 ccbb 1bad b93c
00000180: 22e3 2cbd 0ccb 413c 9904 54bd 17ad 033d
00000190: b6a6 09bd d691 5b3b bc21 10bd f7c4 063d
000001a0: 71ee 80ba 5338 393d 42cc 30bc 34fe e8bc
000001b0: d8f3 d1bd dcd0 c2bd 7f2a e63d 1351 cd3b
000001c0: 66b4 aabd cfcc 16bc 0697 173e 1361 5fbc
000001d0: 1ff5 b03c c4fb f43b 3609 3dbc 3a05 b3bd
000001e0: dcb6 833d e79b ec3b cf86 8a3d caa2 dcba
000001f0: 3f3e 28bd fa59 bdbc c770 3bbd 3ae4 c23c
00000200: 93ea 6dbd 7dc5 07bc 4430 f0bc e29c b2bc
00000210: 6a72 60bc d009 f2bb d990 323d 29b3 8e3c
00000220: 4727 4abc 21d5 72bc 300a 8f3d 51d0 0a3d
00000230: fa43 8e3d 78ac 883c c514 8dbd ed5c b6bc
00000240: f951 fc3d 8ec0 6d3d c636 da3d ad8b 21bc
00000250: 420f ccbc c84c adbd 507c bdbc 0cd7 1fbd
00000260: 699f cdbc 1c60 133d 0ec0 a53d 69d4 eabd
00000270: 9b84 08be 686c f13c 0430 16bd 3a71 06be
00000280: c05f f6bc 6926 8abd 15b3 a23d 2f05 71bd
00000290: beab c4bd d487 bcbc 5a23 533d 2d9e 21bd
000002a0: 0867 823d bf76 263c f14f e43a cb54 363d
000002b0: b070 78bd 1441 ac3d 3229 d0bc cfb6 0abd
000002c0: 8c87 523a 9631 f6bc 7122 7dbd ad03 08bc
000002d0: 5f27 2e3d 06a3 62be 712c 11be f8fe e03a
000002e0: 9d1c 8bbb 8532 fd3c 8a8a b7bc 1dc4 1f3c
000002f0: 69f9 6e3c ee7c a03d 0264 6d3d 6919 85bd
00000300: c948 94bd 1768 b93c b586 a0bc c6dc d93b
00000310: 185c a9bc 0860 d3bc ea1d 273d 3c1a d43c
00000320: e131 9cbd d004 fabb 416a 98bc 27f8 91bc
00000330: 57ce a83c 0330 373c cfc5 83bd 0923 813d
00000340: 42f0 5e3c 1fcc a2bd c259 8bbd 2616 13bd
00000350: 3ca0 64bd 9439 b83d cedd 3dbb 2dd7 4abc
00000360: 9f59 253c aaa0 933d 3fbb 4ebd fbfe 90b9
00000370: 058b 023d 7d7e 7abd 6ada 3e3d 7f76 8bbd
00000380: 95af 97b8 5087 4c3d 937b 8c3d 130d 753d
00000390: 6556 633d 74db b73d 950d 0dbe cf32 1c3d
000003a0: 1516 48bd 27d2 73bd eb5a b53c 88d0 243d
000003b0: b608 d3bc 82c5 0b3d e33b 84bd d418 c4bc
000003c0: 8d4b d1bc aefb 4a3b b3de 4cbc 9e78 0ebe
000003d0: 4fb1 eebc 4b2e 6b3d 2742 b4bc f7ec 70bd
000003e0: 606d cabc 0546 e03d b377 c2bc cb71 f73d
000003f0: eb5b 5fbd b49a ac3c 0ea8 213c 3047 1a3d
-0.055685997 -0.027315581 0.1473867 -0.040715855 0.0038366038 -0.03505319 0.011639192 0.028826594
0.029513579 -0.020538159 -0.07643584 -0.12075901 0.03459528 -0.02616214 0.056247614 -0.06581783
-0.062242456 0.0049262536 0.009870244 0.025320517 -0.014870835 -0.059331007 -0.024118468 -0.07298683
0.01220629 0.02227851 0.12390995 0.06360475 0.037903342 -0.015865626 0.039005462 0.01943577
0.02232065 0.0101094125 -0.004606601 -0.06460787 -0.041404814 -0.066244155 0.102215245 0.005878539
-0.003472189 -0.0063127894 -0.069963776 0.01280097 -0.015840411 0.037865035 -0.007497857 -0.068810865
0.0705343 -0.034863915 -0.049982313 -0.04404718 -0.051059615 -0.07601636 -0.008571783 -0.024169281
-0.058180522 0.023974638 -0.08978848 -0.010495224 0.046963528 -0.17038736 -0.030388722 -0.01270862
-0.0026021786 -0.009317287 0.040958643 0.02332044 -0.13050118 -0.04938699 0.022819998 -0.082136914
0.0086995745 -0.059670262 0.009246169 0.056003552 0.08437486 -0.009075203 -0.022195943 0.027009923
0.070644006 -0.025737595 -0.086012945 0.018209057 0.030484641 -0.10059738 0.021656983 -0.01696429
0.07217365 0.005422087 0.023778055 0.031249283 -0.06635973 0.07794218 -0.0062551596 0.022665551
-0.0422088 0.011828195 -0.051762197 0.032147493 -0.033606254 0.0033503673 -0.03518842 0.032902684
-0.0009836686 0.04521973 -0.010790886 -0.028441526 -0.10251588 -0.09512493 0.11238574 0.0062657683
-0.083351895 -0.009204104 0.14803705 -0.013633984 0.021601258 0.007476302 -0.011537841 -0.08741231
0.06431362 0.0072207334 0.06763994 -0.0016833183 -0.041074988 -0.023114193 -0.04576185 0.023790468
-0.058085036 -0.008286831 -0.02931989 -0.021803323 -0.013699153 -0.0073864236 0.04359517 0.017419415
-0.012338466 -0.014821322 0.06984365 0.033890072 0.06946559 0.016683802 -0.06888727 -0.022261107
0.123203225 0.058044963 0.106549785 -0.009859961 -0.02490962 -0.084619105 -0.023130566 -0.039023444
-0.025100427 0.03598033 0.08093272 -0.11466295 -0.13331835 0.029470637 -0.036666885 -0.1312913
-0.030074954 -0.067456074 0.079443134 -0.058842834 -0.0960307 -0.023013987 0.051547386 -0.03945749
0.06367308 0.010160147 0.0017418844 0.04451446 -0.060654342 0.0841085 -0.025410268 -0.033865746
0.00080310623 -0.030052941 -0.061800424 -0.008301658 0.042518016 -0.22132501 -0.1417711 0.001716583
-0.0042453543 0.030907879 -0.022404928 0.009751347 0.014585831 0.078363284 0.057956703 -0.06498987
-0.07240445 0.022632642 -0.019595483 0.0066486327 -0.020673797 -0.025802627 0.040800013 0.025891416
-0.07626701 -0.007629968 -0.018605353 -0.017818524 0.020606203 0.0111808805 -0.06434213 0.063055106
0.013607087 -0.07949089 -0.06804229 -0.035909794 -0.055816874 0.08995357 -0.0028971317 -0.0123804035
0.010092168 0.072083786 -0.05047154 -0.00027655796 0.03187086 -0.061155785 0.046595015 -0.06809711
-7.232946e-05 0.04993373 0.068595074 0.05982692 0.055502314 0.08977404 -0.13774712 0.038134392
-0.048849184 -0.05952659 0.02213808 0.040237933 -0.02576099 0.034123905 -0.06456735 -0.02393762
-0.02554872 0.0030972767 -0.0125042675 -0.139132 -0.029137282 0.057417195 -0.0220042 -0.058819737
-0.024710357 0.10950855 -0.023738718 0.12082251 -0.05453102 0.021069862 0.0098667275 0.037665546

fc1.bias f4 [128]
00000000: 16d7 3a3c bad7 a0bd 1f4c bbbc 49dd ac3c
00000010: 96cf 5fbd 26e1 d8bc c540 cbbc 278f 853d
00000020: 212f a4bb 7eab 18bd 0781 153d 420e a9bc
00000030: f5c8 fa3c cbe1 36bc 055b d7bc ba98 293d
00000040: a7c8 23bd 2513 123d 4f8c 89bc ebe5 523c
00000050: 5b15 e7bc 58d1 81bb 937f c3bc b092 443d
00000060: 417e 863c db3b 2dbd 026c 06bd ac58 b3bc
00000070: 2708 cabb b852 e2bc 8025 f8ba d1c9 17bb
00000080: 8bdd de3b fe6d 98bc f771 963d 4f58 05bd
00000090: 383d 17bd ae32 d43c 38f3 343c c63a 0bbd
000000a0: 7db4 323c 5fda 0bbd 5865 4a3d 2789 2bbc
000000b0: 446c 92bc f803 1fbd d9d7 693d 657c 8cbb
000000c0: f2f6 debb 8bae b4bc 2770 403c 9f41 7d3b
000000d0: aa78 c43c 76d7 e0bc 1fb8 4dbd 5ca2 9c3c
000000e0: 9783 2fbb 0f8f 3cbd 8279 6d3d c5fa ccbc
000000f0: b240 48bd a69d 33bc 84a7 963c a046 8c3c
00000100: 8976 bcbc 0ce9 c3bc b819 03bd 7204 133d
00000110: 606f 80bc dc3e 1ebd eada 8f3d 7bfe 9b3c
00000120: 0732 043d 98cd a3bb eea6 0c3d 602c 293c
00000130: d8ed a53c 024a 003d 341d 3f3c 3014 0ebc
00000140: 72f7 993c 5dec 0dbd 7bc5 453d a638 ffbb
00000150: 0e73 653d cd75 3abc 5245 75bd 1652 1b3c
00000160: d57e 65bc 7f69 7f3c 7261 593c ccef a43b
00000170: 1100 5abd 6923 50bc 612a 2e3d a656 1f3d
00000180: 1755 973c 9e20 8839 5683 f63c a751 583c
00000190: 7183 22bb 6f2a 913c 9878 e93c 8fd2 d93c
000001a0: d75a e2bc a65e 053d 4a01 953b f4ca 7d3c
000001b0: c822 2c3c de70 2fbd 95c6 2c3b 51d8 12bc
000001c0: 2847 0dbd 64ea 5bbd d674 58bc e6d9 aebc
000001d0: 356f e73c 6fe8 f9bc 1de1 b43c 706c 533c
000001e0: 85a6 3bbd d23d 0c3c d200 713d e884 8dbb
000001f0: 50c0 c73c 1dbb 56bd 9ec7 503d f5ea 3f3d
0.01140382 -0.078536466 -0.022863446 0.02110161 -0.05464133 -0.026474547 -0.024811158 0.06521445
-0.005010501 -0.037272923 0.036500003 -0.020636681 0.030613402 -0.011162232 -0.026288519 0.041405417
-0.03998628 0.03566279 -0.016790537 0.0128721995 -0.028208425 -0.0039617233 -0.023864543 0.047991455
0.016417624 -0.04229341 -0.032817848 -0.021892868 -0.0061655226 -0.027627334 -0.0018932074 -0.0023161063
0.0068013123 -0.018607136 0.07345956 -0.03255492 -0.036923617 0.025903072 0.011044316 -0.033991598
0.01090729 -0.0341438 0.049413055 -0.010469711 -0.01787389 -0.038822144 0.057090614 -0.00428729
-0.0068043405 -0.022055885 0.011745489 0.003864385 0.023983318 -0.02744649 -0.05022442 0.019120388
-0.0026781315 -0.04603487 0.057977207 -0.02502192 -0.048889823 -0.010962879 0.018390425 0.01712352
-0.02300574 -0.023914836 -0.03200695 0.03589291 -0.015678108 -0.038634166 0.070241764 0.019042244
0.032274272 -0.004998874 0.034338884 0.010325521 0.020255014 0.03132058 0.011664677 -0.008671805
0.018794749 -0.03464924 0.048284035 -0.0077887354 0.056017928 -0.011380625 -0.059880562 0.00948002
-0.01400729 0.015589117 0.013267862 0.005033469 -0.05322272 -0.012703755 0.042520884 0.038900994
0.018473191 0.00025964243 0.030091923 0.013203061 -0.0024797583 0.01772043 0.028499886 0.02658966
-0.027631206 0.032560967 0.004547273 0.015490282 0.010506339 -0.042832248 0.0026363481 -0.008962707
-0.034491688 -0.05369033 -0.01321145 -0.021344136 0.02825127 -0.03050634 0.022079999 0.0129042715
-0.045813102 0.008559661 0.058838673 -0.004318822 0.024383694 -0.05242454 0.05097162 0.04685493

fc2.weight f4 [10, 128]
00000000: 5b18 8fbd fb24 c33d 60a3 e6bd db6f f2bd
00000010: 191a 0bbd 61ac 20bd 0f8c a23d 0185 1abd
00000020: a75a a0bd 6e74 163d 9fd2 fcbd 5c11 08be
00000030: 0926 b43d 3bf3 e53a 57c4 a03d d908 84bd
00000040: e29d 7a3d 8690 15be dd3a 51be 220e a03d
00000050: 10ab 15be 3133 3dbc bef2 9c3b 3c6b 9a3d
00000060: a186 8a3d 4ec8 3bbd 24a4 d8bd 4c15 12bd
00000070: 1bba 723c 3108 1bbe 17f7 c4bd 7a7d 73bb
00000080: 8c6d a13c f0ea 1ebc 8d18 5dbd d6b1 e1bd
00000090: fe96 b63b 50f6 8ebd 2b2d 2cbe bd54 b9bd
000000a0: 450e 0ebd 2027 513d 9c08 afbd d6b5 a83d
000000b0: cb26 5abd 34e3 a43d 0145 e1bc c8b9 09be
000000c0: 96a1 823d 104f 243d 4f93 903d 50d6 713c
000000d0: ced7 abbd e589 d63d 0984 d83d 3aff 35be
000000e0: 2ef5 dc3d 38ab 70bb 43e3 d1bd 66d5 c6bd
000000f0: 80f1 513d cf9f aebd 83ca babd 38fa d43d
00000100: 567a 14bd e919 f4bd f440 55be 182c e23d
00000110: 3b8c e13d 0b65 013d e57b 11be c47a fdbc
00000120: 14f7 323c 9174 e5bd dc59 b13c ef4d c53d
00000130: 1867 f03c 9b03 893d eccd 713d 6a98 87bc
00000140: c709 ad3d 8b98 663d abd5 a4bd c3c1 bb3d
00000150: 320b c5bc 7e1b a53d cd6b c7bd 00dc ed3d
00000160: 9b14 6f3d 13e0 73bd fa1c 473d 33ac e03d
00000170: 0096 a3bd 9fa4 a8bc 1693 04be b0fc 1ebe
00000180: 52a0 d43d f1e9 63bd ee5e ce3c e9f4 23be
00000190: fe04 1abd 36c5 d3bd 7b59 cabd c833 c13c
000001a0: 8609 3abd 0832 1cbe 2c2d a9bd a590 c5bc
000001b0: a1bb 9b3d 2e50 3fba 1381 d8bd 3913 52bd
000001c0: 504c ca3d 4a1d bd3d 629f 1fbe e1fe 5fbd
000001d0: 75e2 10be 2f30 0b3b ed72 9abd dc14 593d
000001e0: 3cee 043d b303 b83d 903a 01bd 749d 12be
000001f0: c008 883d 9963 cc3d 7049 663d 686e e0bd
00000200: f2ff aabd 013f 29be b6e4 2d3c adda de3d
00000210: 89a0 8f3d d436 52bd 88d3 f6bd a4af 4b3d
00000220: 409e c3bd b09b c53d 2ada 97bd 2aff 1c3c
00000230: 7fa7 3c3d 4b0f 193c 7731 433d 5fac 34be
00000240: d81c 383d c83e 0dbd bf1f 4f3d ab5d acbd
00000250: de3f c5bd 4bdc 1ebe 7cec a3bd 3e9e 28be
00000260: 8f21 aabd f3cc e1bd 6778 9cbd fc18 9f39
00000270: 260d a23c b37e b13d fa77 2fbd 4452 823d
00000280: 6f88 86bd ea4d 623c 2d98 953d 8d36 2c3c
00000290: eb5e a83d cbdb 40bd 1cd5 bbbc caef 39bd
000002a0: 7961 243d 508f 32bd ee1c 8bbd fa58 23be
000002b0: 1959 653d 9f44 053e 6fe9 88bd f266 243d
000002c0: 5ac7 56bb a562 fbbd cf3d b63d 4a76 883d
000002d0: 68df 343c 287d 853c f452 463c 95e7 513d
000002e0: ebf1 eabd 326e c7bb 5c83 203d 0dc9 c43d
000002f0: 332f 1abe 341a cc3d 81b7 fbbc b3fc ba3d
00000300: 9cc3 6b3d 4256 1cbe 6a8e aabd ac1f febd
00000310: aac5 a2bd 229f dabc bc4d 07be 8530 633c
00000320: ec96 c1bd f9a0 9ebd 7ab6 73bc 1150 d03d
00000330: 0b89 a8bd 28a0 d4bd 4e6c 083e bbcc 80bd
00000340: 57de c9bd 625f 8cbd bbd5 fd3d 1bc5 24be
00000350: 2f11 eabd e04c 743d 63e1 84bc 1c1c 8abd
00000360: dcf7 093e 0e38 abbd c81a c63c a0a5 523d
00000370: 5c36 aa3c ff13 00bd 2b31 ae3d b7d7 e2bd
00000380: c732 a03d 701f 7d3c b5a3 2abe 508a 383d
00000390: b55a 4c3d 051f 973d a825 f23c 6ca1 ad3d
000003a0: 7149 99be 9357 c03d 91ae d1bd e798 de3d
000003b0: 8cf9 11be fae2 1ebd f9aa d7bd 3a4e 59bd
000003c0: 4b65 16be 3b1f a73d f49a c43d 4faa 90bd
000003d0: 0a11 283d cb90 073c 8136 ac3c ed24 323d
000003e0: 34d5 9cbd d5c1 3ebd d552 bc3d 184d 673d
000003f0: 805d 58be ed41 0cbe 07d5 583d b82b 8c3d
-0.06987067 0.09528538 -0.1126163 -0.11837741 -0.033960436 -0.039226893 0.0793687 -0.0377245
-0.078297906 0.03673213 -0.1234486 -0.13287872 0.08796317 0.0017543802 0.07849949 -0.06447
0.061185725 -0.14605913 -0.20432611 0.078151956 -0.14616036 -0.0115478495 0.0047896793 0.075399846
0.0676396 -0.045845322 -0.10578182 -0.03566484 0.014814879 -0.15139844 -0.09617441 -0.0037153647
0.019705556 -0.009699568 -0.05397849 -0.11020248 0.005572199 -0.06980574 -0.16814105 -0.09049366
-0.034681577 0.051062703 -0.08546564 0.082378075 -0.053259652 0.08051148 -0.027498724 -0.13449776
0.06378476 0.040114462 0.07059347 0.014760569 -0.08390771 0.1047552 0.10572059 -0.17773142
0.10788952 -0.0036723148 -0.10248425 -0.09708671 0.051255703 -0.08526575 -0.09120657 0.10399288
-0.03624948 -0.119190045 -0.20825559 0.110435665 0.11013075 0.031590503 -0.14207418 -0.030942328
0.010923166 -0.11203874 0.021649294 0.09634005 0.029346034 0.06690141 0.059034273 -0.016552169
0.084491305 0.05629782 -0.080485664 0.091678165 -0.02405319 0.08061884 -0.09737358 0.11614227
0.05836926 -0.059539866 0.04861162 0.109703444 -0.079875946 -0.02058631 -0.12946734 -0.1552608
0.10382141 -0.055643026 0.02519175 -0.16011395 -0.037602417 -0.103403494 -0.09880348 0.023584262
-0.04541924 -0.1525346 -0.08260569 -0.024116823 0.07604147 -0.00072980195 -0.10571494 -0.051287863
0.09877837 0.09234102 -0.15588143 -0.05468643 -0.14148887 0.0021238436 -0.075414516 0.05299841
0.03245376 0.089850806 -0.03154999 -0.14317876 0.06642294 0.09979934 0.05622238 -0.10958558
-0.08349599 -0.1652794 0.010613611 0.10881553 0.070130415 -0.05132182 -0.12052065 0.04972805
-0.09551668 0.09648836 -0.07414658 0.00958232 0.046058174 0.009342025 0.047654595 -0.1764388
0.044949383 -0.0344837 0.050567385 -0.08416303 -0.09631322 -0.15513723 -0.0800409 -0.16466615
-0.08307182 -0.11025419 -0.076401524 0.00030345458 0.01978166 0.08666744 -0.042839028 0.06363347
-0.065689914 0.0138125215 0.07304416 0.010511053 0.08221229 -0.04708461 -0.022928767 -0.045394696
0.04013202 -0.043593705 -0.06792627 -0.1595191 0.055993173 0.13014458 -0.06685149 0.04013724
-0.0032772631 -0.12274674 0.08898508 0.06663187 0.011039592 0.01629503 0.0121047385 0.051246244
-0.114719234 -0.0060861344 0.039187774 0.0960866 -0.15057068 0.09965935 -0.03072715 0.0913023
0.057559595 -0.1526728 -0.083279446 -0.12408385 -0.07947858 -0.026687209 -0.13213247 0.013866548
-0.09452614 -0.07745547 -0.014875049 0.101715215 -0.08229264 -0.1038211 0.13322565 -0.06289049
-0.09856861 -0.0685413 0.123942815 -0.16090815 -0.11429059 0.059643626 -0.016220754 -0.06743643
0.13473457 -0.08360301 0.024182692 0.051427484 0.020777874 -0.03126907 0.08505472 -0.110763006
0.07822185 0.01544939 -0.16664012 0.04505378 0.049891192 0.073789634 0.029558972 0.084780544
-0.29938844 0.093917035 -0.10238374 0.108690076 -0.14255351 -0.03879068 -0.10530657 -0.05305312
-0.14687078 0.081602536 0.095998675 -0.07063734 0.041031875 0.008274267 0.021022083 0.043492246
-0.07657853 -0.04657157 0.091954865 0.056470007 -0.21129417 -0.13697024 0.052937534 0.06844276

fc2.bias f4 [10]
00000000: 4056 f5bc cd04 90bd 8aa8 d1bc ecc6 573b
00000010: ca47 99bc cc25 453c d497 d53c d609 9aba
00000020: 4e73 3c3e 67a1 523c
-0.029948354 -0.07032166 -0.025593061 0.0032924963 -0.01871099 0.012032937 0.026073374 -0.0011752199
0.1840336 0.012855864
